deep_learning_based/logs/xNW20/theta_FIN.npy (npy, 230528 bytes, 1 tensors)

array f4 [1, 1600, 36]
0	0x3f800000	1.0
1	0x41ac9284	21.57154
2	0xc20e4caf	-35.574886
3	0xc6bac51c	-23906.555
4	0xc8fa20a6	-512261.2
5	0x4c7187e0	6.331584e+07
6	0x3e864e6d	0.2623171
7	0x40b5131e	5.6585836
8	0xc1154f77	-9.331901
9	0xc5c3f8c8	-6271.0977
10	0xc80339b7	-134374.86
11	0x4b7d6e3b	1.6608827e+07
12	0x3d8cec64	0.068810254
13	0x3fbdfef5	1.4843432
14	0xc01caaac	-2.447917
15	0xc4cda084	-1645.0161
16	0xc709b0d3	-35248.824
17	0x4a84f556	4.356779e+06
18	0x3c93ddd1	0.018050106
19	0x3ec75b52	0.3893686
20	0xbf2462aa	-0.6421305
21	0xc3d7c207	-431.51584
22	0xc610797a	-9246.369
23	0x498b824d	1.1428576e+06
24	0x3b9b26cf	0.004734851
25	0x3dd12dbe	0.10213803
26	0xbe2c7c01	-0.16844179
27	0xc2e26350	-113.19397
28	0xc51797b0	-2425.4805
29	0x489261e2	299791.06
30	0x3aa2cbb0	0.0012420323
31	0x3cdb7c0d	0.02679255
32	0xbd34fb7f	-0.044185158
33	0xc1ed8aad	-29.692713
34	0xc41f0fad	-636.24493
35	0x47999829	78640.32
36	0x3f800000	1.0
37	0xc08904c2	-4.281831
38	0x429c402f	78.12536
39	0x443a9a98	746.4155
40	0xc638e668	-11833.602
41	0x48d82a27	442705.22
42	0xbf112def	-0.56710714
43	0x401b688f	2.4282568
44	0xc23138c8	-44.30545
45	0xc3d3a617	-423.29758
46	0x45d1b75c	6710.92
47	0xc8752d53	-251061.3
48	0x3ea4aa22	0.3216105
49	0xbfb04437	-1.3770818
50	0x41c901eb	25.125937
51	0x43700e1a	240.05508
52	0xc56ddcf8	-3805.8105
53	0x480b0aaa	142378.66
54	0xbe3ac3d2	-0.18238762
55	0x3f47ec88	0.78095293
56	0xc163fc4e	-14.249098
57	0xc308230f	-136.13695
58	0x4506e4d7	2158.3025
59	0xc79db3fa	-80743.95
60	0x3dd3d4d9	0.10343332
61	0xbee2c1b0	-0.44288397
62	0x41014ad0	8.080765
63	0x429a6891	77.20423
64	0xc498ffa3	-1223.9886
65	0x4732de78	45790.47
66	0xbd704322	-0.058657773
67	0x3e809864	0.25116265
68	0xc092a526	-4.5826597
69	0xc22f21de	-43.783073
70	0x442d887e	694.1327
71	0xc6cae034	-25968.102
72	0x3f800000	1.0
73	0xc0579a6d	-3.3688004
74	0xc18e8880	-17.81665
75	0x440a5b16	553.4232
76	0x43e57a40	458.95508
77	0xc91a090a	-630928.6
78	0xbef8d54a	-0.48600227
79	0x3fd1913b	1.6372446
80	0x410a8afd	8.658933
81	0xc3867b83	-268.96494
82	0xc35f0d9f	-223.0532
83	0x4895b918	306632.75
84	0x3e71ddf1	0.2361982
85	0xbf4bb34c	-0.7957046
86	0xc086aa13	-4.208261
87	0x4302b7b3	130.71758
88	0x42d8cf09	108.404366
89	0xc811880d	-149024.2
90	0xbdeb1885	-0.11479286
91	0x3ec5ff69	0.38671425
92	0x4002e4f4	2.0452242
93	0xc27e1dbb	-63.529034
94	0xc252bd33	-52.684765
95	0x478d750d	72426.1
96	0x3d6483a0	0.05578959
97	0xbe407464	-0.187944
98	0xbf7e75b6	-0.9939836
99	0x41f70085	30.875254
100	0x41ccd6de	25.604916
101	0xc7097f40	-35199.25
102	0xbcde1de7	-0.027113868
103	0x3dbb111a	0.09134121
104	0x3ef7560a	0.4830783
105	0xc170164c	-15.005444
106	0xc1471ad1	-12.444047
107	0x4685a5d5	17106.916
108	0x3f800000	1.0
109	0xbe8a819c	-0.2705201
110	0x410a5a8f	8.647109
111	0xc2b44a4a	-90.145096
112	0x44e01b62	1792.8557
113	0xc6f63020	-31512.062
114	0xbf8591a1	-1.0435067
115	0x3e908841	0.28228953
116	0xc1105f81	-9.023316
117	0x42bc2250	94.06702
118	0xc4e9db6d	-1870.857
119	0x4700730d	32883.05
120	0x3f8b6148	1.0889063
121	0xbe96d204	-0.29457104
122	0x4116a77e	9.415892
123	0xc2c451b2	-98.15956
124	0x44f4080f	1952.2518
125	0xc70609af	-34313.684
126	0xbf9171a8	-1.136281
127	0x3e9d61cf	0.30738685
128	0xc11d3570	-9.825546
129	0x42ccdc3e	102.43016
130	0xc4fea603	-2037.1879
131	0x470bde8f	35806.56
132	0x3f97c592	1.1857169
133	0xbea43aaf	-0.32076022
134	0x41240c62	10.253023
135	0xc2d5c5eb	-106.88656
136	0x4504dd1c	2125.8193
137	0xc711f462	-37364.383
138	0xbf9e5ff6	-1.2373035
139	0x3eab5fd3	0.33471546
140	0xc12b2f82	-10.699099
141	0x42df12dd	111.53684
142	0xc50aa4e8	-2218.3066
143	0x47184dfc	38989.984
144	0x3f800000	1.0
145	0x40ef9be1	7.487778
146	0xc2005a1e	-32.088005
147	0xc508f061	-2191.0237
148	0x46b79c14	23502.04
149	0x49c897f0	1.643262e+06
150	0xbdad3a6d	-0.084584095
151	0xbf222306	-0.6333469
152	0x402db463	2.714135
153	0x43395365	185.32576
154	0xc4f87cc2	-1987.8987
155	0xc807bc75	-138993.83
156	0x3bea7009	0.007154469
157	0x3d5b6d58	0.053571075
158	0xbe6b1517	-0.22957264
159	0xc17acf4d	-15.675611
160	0x43282505	168.1446
161	0x4637b2ab	11756.667
162	0xba1ea337	-0.00060515426
163	0xbb947af9	-0.004531261
164	0x3c9f12e7	0.019418193
165	0x3fa9b755	1.3259073
166	0xc1638ec8	-14.222359
167	0xc4789b54	-994.427
168	0x3856b101	5.1186424e-05
169	0x39c8f1fa	0.0003832726
170	0xbad74828	-0.0016424702
171	0xbde5af40	-0.11215067
172	0x3f99fb6c	1.2029853
173	0x42a839b4	84.1127
174	0xb691469d	-4.329557e-06
175	0xb807f962	-3.2418764e-05
176	0x3911ace5	0.00013892686
177	0x3c1b6bd9	0.009486162
178	0xbdd06419	-0.10175342
179	0xc0e3aac7	-7.114597
180	0x3f800000	1.0
181	0x416f043c	14.938534
182	0x43090d9f	137.0532
183	0xc5d4605e	-6796.046
184	0xc8670f90	-236606.25
185	0x49565480	877896.0
186	0xbe86516e	-0.26234
187	0xc07ad07d	-3.918975
188	0xc20fd173	-35.95454
189	0x44dedbfe	1782.8748
190	0x47727749	62071.285
191	0xc860e8d0	-230307.25
192	0x3d8cf2b2	0.06882228
193	0x3f8398e9	1.028104
194	0x4116eac2	9.432314
195	0xc3e9dc14	-467.71936
196	0xc67e6f20	-16283.781
197	0x476c02ce	60418.805
198	0xbc93e7bd	-0.018054837
199	0xbe8a17cc	-0.2697128
200	0xc01e5dc6	-2.4744735
201	0x42f5672b	122.7015
202	0x45857f19	4271.887
203	0xc677a914	-15850.27
204	0x3b9b34b2	0.0047365064
205	0x3d90e8c3	0.07075646
206	0x3f262eeb	0.6491534
207	0xc200c210	-32.189514
208	0xc48c15fc	-1120.687
209	0x4581f148	4158.16
210	0xbaa2dde7	-0.0012425751
211	0xbc980fdc	-0.01856225
212	0xbe2e62d6	-0.1702989
213	0x41071d12	8.444597
214	0x43930022	294.00104
215	0xc4885b41	-1090.8517
216	0x3f800000	1.0
217	0xc02c860b	-2.6956813
218	0x42cf1334	103.537506
219	0x447411cc	976.2781
220	0xc673fd9b	-15615.401
221	0xc99c8f5c	-1.2825395e+06
222	0xbf236ab3	-0.63834685
223	0x3fdc4282	1.7207797
224	0xc2842f89	-66.09284
225	0xc41bcd0f	-623.20404
226	0x461bc02b	9968.042
227	0x4947e111	818705.06
228	0x3ed0a219	0.4074867
229	0xbf8c9a27	-1.0984544
230	0x4228c2b9	42.19016
231	0x43c6e901	397.82034
232	0xc5c6d88c	-6363.0684
233	0xc8ff2f3a	-522617.8
234	0xbe852e2b	-0.26011786
235	0x3f338182	0.7011949
236	0xc1d774a4	-26.931953
237	0xc37df286	-253.94736
238	0x457ddd84	4061.8447
239	0x48a2e56e	333611.44
240	0x3e2a07cf	0.16604541
241	0xbee52c8d	-0.44760552
242	0x41898911	17.191927
243	0x43221b43	162.10649
244	0xc5220dda	-2592.8657
245	0xc84ff7f3	-212959.8
246	0xbdd913ae	-0.10599457
247	0x3e924ae3	0.2857276
248	0xc12f9732	-10.974413
249	0xc2cef5d9	-103.48017
250	0x44cee4ba	1655.1477
251	0x4804c18e	135942.22
252	0x3f800000	1.0
253	0x4004d3d7	2.0754297
254	0x423adc8a	46.71537
255	0xc2281594	-42.021072
