deep_learning_based/logs/oldKdV15/theta_FIN.npy (npy, 230528 bytes, 1 tensors)

array f4 [1, 1600, 36]
000000 00 00 80 3f 7e a9 47 bd a4 52 e6 be b2 15 a6 41
       1.0 -0.048745625 -0.44984925 20.760593
000010 98 75 6c 43 b4 96 fe c5 e0 65 1a 3b d5 d6 f0 b8
       236.45935 -8146.838 0.0023559257 -0.000114841074
000020 5f e9 8a ba 4a 56 48 3d d7 9c 0e 3f f9 8b 99 c1
       -0.0010598114 0.048910417 0.5570807 -19.193346
000030 74 3d ba 36 13 41 91 b4 55 8f 27 b6 44 a7 f1 38
       5.550386e-06 -2.7055702e-07 -2.496837e-06 0.00011522931
000040 34 06 ac 3a 9c 36 39 bd 2a a6 60 32 e7 35 2f b0
       0.0013124407 -0.045218095 1.3076297e-08 -6.374123e-10
000050 cf 1d ca b1 c9 be 91 34 60 80 4f 36 1d 69 df b8
       -5.8823626e-09 2.714717e-07 3.0920128e-06 -0.000106530475
000060 5b 7d 07 2e 4c 58 d3 ab b9 cc 73 ad 89 cd 2f 30
       3.0806784e-11 -1.5016959e-12 -1.3858408e-11 6.395671e-10
000070 99 4b fa 31 23 be 86 b4 a8 6e a3 29 72 ee 7e a7
       7.284552e-09 -2.5097788e-07 7.25785e-14 -3.5378842e-15
000080 2d 0a 13 a9 35 0f d4 2b 15 f5 96 2d 00 88 22 b0
       -3.2649383e-14 1.5067727e-12 1.7161864e-11 -5.9128524e-10
000090 00 00 80 3f e2 8d 6d c0 d2 83 b5 42 f2 9a 9b c4
       1.0 -3.7117848 90.75746 -1244.842
0000a0 72 2a f3 c5 7b 37 eb 49 9c 28 41 3e a6 3d 33 bf
       -7781.3057 1.9268954e+06 0.18863147 -0.70015943
0000b0 2d f5 88 41 ff d0 6a c3 93 79 b7 c4 24 7a b1 48
       17.119715 -234.81639 -1467.7992 363473.12
0000c0 42 be 11 3d ea 3d 07 be 21 ad 4e 40 d0 2c 31 c2
       0.035581835 -0.13207212 3.229317 -44.293762
0000d0 c3 6f 8a c3 3c e9 85 47 1d ef db 3b 43 16 cc bc
       -276.87314 68562.47 0.006711854 -0.024912959
0000e0 4f f1 1b 3f e4 ae 05 c1 70 e8 50 c2 2a 14 4a 46
       0.6091508 -8.355198 -52.22699 12933.041
0000f0 28 f2 a5 3a 28 fd 99 bb 53 53 eb 3d 1e bc c9 bf
       0.0012660669 -0.004699368 0.11490502 -1.5760534
000100 60 a0 1d c1 41 79 18 45 c6 6b 7a 39 91 60 68 ba
       -9.851654 2439.5784 0.00023882007 -0.0008864487
000110 26 8f b1 3c d2 36 98 be d2 dd ed bf 34 17 e6 43
       0.021674704 -0.29729325 -1.8583319 460.18127
000120 00 00 80 3f a8 0f 06 3d 74 4b c9 bf f0 61 1d 41
       1.0 0.032729775 -1.5726151 9.8364105
000130 f8 b8 54 44 58 a4 d6 c6 40 67 46 bb 5c cc cf b8
       850.89014 -27474.172 -0.0030273944 -9.908594e-05
000140 8b 01 9c 3b 73 f2 f3 bc db dc 24 c0 ae 59 a6 42
       0.004760926 -0.029778695 -2.57598 83.175156
000150 e1 c3 19 37 de 0b a1 34 3b d0 71 b7 e9 0f bd 38
       9.165117e-06 2.999722e-07 -1.4413202e-05 9.015186e-05
000160 a0 8a ff 3b 74 ec 80 be 09 57 ee b2 44 a0 79 b0
       0.007798508 -0.251804 -2.7746426e-08 -9.0813423e-10
000170 96 68 3b 33 8f 86 92 b4 49 0c c6 b7 c3 d5 47 3a
       4.363445e-08 -2.7292523e-07 -2.360916e-05 0.00076231005
000180 72 b7 b8 2e a3 76 41 2c 7a 3e 11 af 57 1e 63 30
       8.399938e-11 2.7492806e-12 -1.320987e-10 8.2625234e-10
000190 61 7d 99 33 ee df 1a b6 62 28 8f aa c9 ef 15 a8
       7.147424e-08 -2.3078132e-06 -2.5429924e-13 -8.323157e-15
0001a0 cd 21 e1 2a 11 05 30 ac c2 e9 6d af 52 0f f0 31
       3.9991483e-13 -2.5013917e-12 -2.1638072e-10 6.986661e-09
0001b0 00 00 80 3f b6 43 34 3d fe 9c 2c 3f fc ce 8d 41
       1.0 0.044009887 0.6742705 17.726067
0001c0 60 63 17 c2 c8 72 8e c5 80 df 10 3a ef 06 cc 37
       -37.847046 -4558.3477 0.0005526468 2.4321924e-05
0001d0 04 5e c3 39 78 80 20 3c 23 58 ab bc db 39 21 c0
       0.00037263345 0.009796254 -0.02091605 -2.5191562
0001e0 66 f8 a3 34 0d ec 66 32 e5 1e 5d 34 c7 a8 b5 36
       3.054185e-07 1.3441434e-08 2.0593468e-07 5.4138686e-06
0001f0 55 ee 41 b7 9b 7a b6 ba c1 95 39 2f 62 ae 02 2d
       -1.1559187e-05 -0.0013922037 1.6878855e-10 7.428365e-12
000200 da 44 fa 2e 11 9b 4d 31 bf 7e db b1 8d 88 4e b5
       1.1380914e-10 2.9919571e-09 -6.3881482e-09 -7.693969e-07
000210 86 0c d2 29 5d e8 93 27 3a a1 8d 29 75 b5 e8 2b
       9.328046e-14 4.1052625e-15 6.289626e-14 1.6534956e-12
000220 d9 6d 78 ac 40 c2 e9 af db bc 6d 24 ab 67 27 22
       -3.5303897e-12 -4.2520476e-10 5.155115e-17 2.2687602e-18
000230 ae 4c 20 24 3d b1 83 26 ae 96 0c a7 59 49 84 aa
       3.475942e-17 9.137992e-16 -1.9510587e-15 -2.3498805e-13
000240 00 00 80 3f 30 3e d1 3b 45 66 b3 bf 0e 7a 12 c1
       1.0 0.006385587 -1.4015585 -9.1547985
000250 f1 8a 62 44 e0 f4 42 c4 a0 5c 38 3b 68 b0 96 37
       906.17096 -779.8262 0.002813138 1.7963539e-05
000260 6a 32 81 bb 73 f9 d2 bc d5 25 23 40 8b 66 0c c0
       -0.0039427774 -0.025753712 2.549184 -2.1937587
000270 48 c5 04 37 a1 0a 59 33 f7 15 3a b7 a1 ef 97 b8
       7.913746e-06 5.0533917e-08 -1.1091578e-05 -7.2448755e-05
000280 72 fc ea 3b 02 39 ca bb ab 3b bf 32 2b 4e 1c 2f
       0.007171207 -0.0061713466 2.226246e-08 1.4215888e-10
000290 1e 03 06 b3 69 d6 5a b4 77 3a a9 37 24 a2 91 b7
       -3.120214e-08 -2.0380834e-07 2.0173595e-05 -1.736085e-05
0002a0 15 b8 89 2e 7b 21 e1 2a 76 05 c1 ae 4a 99 1d b0
       6.262738e-11 3.999126e-13 -8.777594e-11 -5.7334104e-10
0002b0 83 be 73 33 78 c2 51 b3 47 5c 46 2a 86 21 a2 26
       5.6751116e-08 -4.8838473e-08 1.7617948e-13 1.1250095e-15
0002c0 c4 01 8b aa 67 fe e2 ab 1f 89 2f 2f ab 0f 17 af
       -2.4692585e-13 -1.6128877e-12 1.5964872e-10 -1.3738936e-10
0002d0 00 00 80 3f 62 94 ce bf 7f 9c 0a c2 df 81 4a 44
       1.0 -1.6139033 -34.65283 810.02924
0002e0 ea 2d 05 46 b4 8e 3b c9 d6 64 b3 3e 1f c3 10 bf
       8523.479 -768235.25 0.3503787 -0.5654773
0002f0 0c 44 42 c1 93 e8 8d 43 20 a7 3a 45 a8 6e 83 c8
       -12.141613 283.817 2986.4453 -269173.25
000300 56 6c fb 3d e8 e2 4a be 19 22 88 c0 08 e3 c6 42
       0.12276523 -0.1981312 -4.2541623 99.44342
000310 61 cc 82 44 4a 34 b8 c7 c9 2f 30 3d 93 2c 8e bd
       1046.3868 -94312.58 0.04301432 -0.069420956
000320 ee ca be bf 16 5f 0b 42 da 50 b7 43 1e 15 01 c7
       -1.4905679 34.842857 366.63165 -33045.117
000330 9e ed 76 3c 55 42 c7 bc 0a b3 05 bf c4 54 43 41
       0.015071301 -0.024323622 -0.52226317 12.208195
000340 bd 75 00 43 38 e9 34 c6 69 09 ad 3b de a1 0b bc
       128.45992 -11578.305 0.005280663 -0.008522479
000350 b4 61 3b be 35 e1 88 40 d9 09 34 42 a9 8c 7d c5
       -0.1829899 4.277491 45.009617 -4056.7913
000360 00 00 80 3f 7e 7f 13 3f f4 aa 90 41 2c f5 ea c1
       1.0 0.5761641 18.083473 -29.369713
000370 42 3d 8b 45 16 17 0c c8 01 2f 80 3d a8 b5 13 3d
       4455.657 -143452.34 0.06258965 0.036061913
000380 14 e0 90 3f 74 4b eb bf 64 70 8b 43 88 4a 0c c6
       1.1318383 -1.8382401 278.87805 -8978.633
000390 13 5e 80 3b e6 eb 13 3b 47 15 91 3d db a1 eb bd
       0.0039174645 0.0022571026 0.070841365 -0.11505481
0003a0 98 a3 8b 41 0c 7e 0c c4 37 8d 80 39 38 22 14 39
       17.45488 -561.9695 0.00024519276 0.00014127127
0003b0 8e 4a 91 3b 63 f8 eb bb df d6 8b 3f a4 b1 0c c2
       0.0044339364 -0.007201241 1.0924948 -35.173477
0003c0 6b bc 80 37 9d 58 14 37 e8 7f 91 39 09 4f ec b9
       1.5346528e-05 8.842119e-06 0.00027751853 -0.00045072314
0003d0 38 0a 8c 3d 4d e5 0c c0 b1 eb 80 35 16 8f 14 35
       0.068378866 -2.2014954 9.605338e-07 5.5342514e-07
0003e0 56 b5 91 37 cf a5 ec b7 a5 3d 8c 3b 0a 19 0d be
       1.7369788e-05 -2.8210603e-05 0.0042798095 -0.13779083
0003f0 00 00 80 3f 4d db d0 be 15 5e ab 40 08 dc 81 c2
       1.0 -0.40792313 5.3552346 -64.92975
