deep_learning_based/logs/xKS50/theta_FIN.npy (npy, 230528 bytes, 1 tensors)

array f4 [1, 1600, 36]
00000000: 0000 803f 3d96 7d41 16ad 2745 2fb8 bdc8
00000010: d0d8 024a 45fa ec4f 3693 d9be 2c86 d7c0
00000020: 2382 8ec4 393e 2148 0d6a 5ec9 6a68 49cf
00000030: e6ea 383e ab2c 3740 853c f243 770a 89c7
00000040: ca07 bd48 532d ab4e 7329 9dbd 32ae 9bbf
00000050: 99e0 4dc3 59f1 e846 4ea8 20c8 db7b 11ce
00000060: 8292 053d 2e50 043f c5f9 ae42 88fa 45c6
00000070: 0c8b 8847 4a4b 774d ff0b 63bc 1ae8 60be
00000080: 56b6 14c2 3643 a845 c418 e8c6 062d d2cc
00000090: 0000 803f 86b2 ffc1 be26 27c5 02fd 8648
000000a0: 3833 484c 81e6 53cf cfe4 e73e a19e 67c1
000000b0: 5b69 97c4 e78d f447 2759 b54b 63f2 bfce
000000c0: ba0e 523e 27cf d1c0 6527 09c4 9f86 5d47
000000d0: 8845 244b 46df 2dce 0947 be3d 730d 3ec0
000000e0: 457a 78c3 79aa c846 91cd 944a e07f 9dcd
000000f0: 2a5c 2c3d 0028 acbf 6a14 e1c2 2dc5 3546
00000100: 7dca 064a 28ab 0ecd 3721 9c3c f7f1 1bbf
00000110: 97e2 4bc2 62a7 a445 5f32 7449 f53b 81cc
00000120: 0000 803f bc09 20c1 b630 6a45 b844 13c8
00000130: 27ab 42cc b625 de4f 26b7 77be e3db 1a40
00000140: 8b9c 62c4 aa80 0e47 685e 3c4b 51f5 d6ce
00000150: eeb2 6f3d f2d8 15bf 2a47 5b43 16e4 09c6
00000160: d945 36ca 7a00 d04d 20f1 67bc 86ff 103e
00000170: 892e 54c2 b86d 0545 cc5f 3049 4445 c9cc
00000180: 956f 603b 464e 0cbd b350 4d41 521c 01c4
00000190: 9caa 2ac8 d3c1 c24b 3a2c 59ba e6c3 073c
000001a0: c0ab 46c0 62dd f942 b624 2547 5874 bcca
000001b0: 0000 803f 761a e43f 6068 8544 12eb 8847
000001c0: 3323 eeca 9cb4 13cd ce44 0abe 2467 76be
000001d0: 3e1c 10c3 09e7 13c6 fa9e 8049 1e8e 9f4b
000001e0: 815c 953c d315 053d e9ab 9b41 96c4 9f44
000001f0: 89f0 0ac8 fc5a 2cca 0558 21bb 12c3 8fbb
00000200: 0629 28c0 d495 2cc3 0416 9646 be2e ba48
00000210: 9f49 ae39 954b 1b3a 9ea6 b53e 4d6e ba41
00000220: 6920 22c5 791e 49c7 0f45 3cb8 f7c0 a7b8
00000230: 4739 44bd 2163 49c0 1722 af43 f640 d945
00000240: 0000 803f 44bc 7341 c741 aac4 5836 5bc6
00000250: 9a8b 154b 4583 0dce e0de 273d 03d4 1f3f
00000260: 464a 5fc2 4cbf 0fc4 8720 c448 ab97 b9cb
00000270: 1529 dc3a e89c d13c da6b 12c0 e185 bcc1
00000280: f89b 8046 0a67 73c9 795e 9038 d973 893a
00000290: a907 c0bd ee3e 77bf 6dab 2844 209c 1fc7
000002a0: a356 3d36 7b44 3438 5dd8 7bbb 4f21 22bd
000002b0: 5a35 dd41 9c53 d1c4 b650 f833 3a6b ec35
000002c0: 6625 25b9 c2a1 d4ba 630e 913f c843 89c2
000002d0: 0000 803f 9e8c 09c0 414d b8c3 6ab0 dc47
000002e0: 63a9 5e4a 6c00 3dce 08b8 f33d 5bf3 82be
000002f0: d275 2fc2 1a1a 5246 dafa d348 45ef b3cc
00000300: e306 683c 4556 f9bc f80a a7c0 d005 c844
00000310: 7fcf 4947 774d 2bcb 56e5 dc3a 2260 6dbb
00000320: 7f07 1fbf 4f6d 3e43 0921 c045 ae15 a3c9
00000330: 7c4c 5239 e4fc e1b9 7066 97bd a64a b541
00000340: 79e9 3644 d042 1bc8 c735 c837 8125 57b8
00000350: 1223 10bc 2f98 2c40 1b23 ae42 08d0 93c6
00000360: 0000 803f ee36 3a41 875a 9244 664f 94c7
00000370: 8fe2 954a ff99 834e aad8 dabe 6130 9fc0
00000380: e939 fac3 4592 fd46 c821 00ca 0901 e1cd
00000390: b915 3b3e ed15 0840 18e9 5543 2ac5 58c6
000003a0: 6d12 5b49 5059 404d d6ee 9fbd b1ab 68bf
000003b0: 89dd b6c2 5c4f b945 1947 bbc8 d96e a4cc
000003c0: beb8 083d 20e7 c63e 6b53 1c42 6b6a 1ec5
000003d0: 0c19 2048 9091 0c4c 11c2 69bc 2909 2abe
000003e0: 57a3 85c1 b26c 8744 d4dc 88c7 d955 70cb
000003f0: 0000 803f d948 32c2 2d9a 73c5 66ec f048
1.0 15.849179 2682.8179 -388545.47 2.143796e+06 7.9516493e+09 -0.42495126 -6.7351284
-1140.0668 165112.89 -911008.8 -3.3790633e+09 0.18058357 2.8621013 484.4728 -70164.93
387134.3 1.4359372e+09 -0.076739214 -1.2162535 -205.87733 29816.674 -164513.22 -6.102033e+08
0.032610424 0.51684844 87.48783 -12670.633 69910.09 2.5930666e+08 -0.013857841 -0.2196354
-37.178062 5384.4014 -29708.383 -1.1019269e+08 1.0 -31.96217 -2674.4214 276456.06
5.248125e+07 -3.555099e+09 0.45291755 -14.476228 -1211.2924 125211.805 2.3769678e+07 -1.6101667e+09
0.2051343 -6.556537 -548.61554 56710.62 1.0765704e+07 -7.292727e+08 0.09290893 -2.9695709
-248.47762 25685.236 4.8759765e+06 -3.303004e+08 0.042080082 -1.3449707 -112.53987 11633.294
2.2084152e+06 -1.4959885e+08 0.019058807 -0.60916084 -50.97128 5268.923 1.00022994e+06 -6.7755944e+07
1.0 -10.002377 3747.0444 -150802.88 -5.1031196e+07 7.454027e+09 -0.2419096 2.4196708
-906.446 36480.664 1.2344936e+07 -1.8032006e+09 0.05852025 -0.5853416 219.27798 -8825.021
-2.9863582e+06 4.3621152e+08 -0.01415661 0.14159974 -53.045444 2134.8574 722428.75 -1.0552374e+08
0.0034246196 -0.034254335 12.832202 -516.4425 -174762.44 2.5527206e+07 -0.00082844833 0.008286452
-3.1042328 124.93239 42276.71 -6.175276e+06 1.0 1.7820575 1067.2617 70102.14
-7.8032895e+06 -1.5488045e+08 -0.1350281 -0.24062783 -144.11032 -9465.759 1.0536632e+06 2.0913212e+07
0.018232586 0.032491516 19.45894 1278.1433 -142274.14 -2.823871e+06 -0.0024619114 -0.004387268
-2.6275039 -172.58527 19211.008 381301.94 0.00033242718 0.00059240434 0.3547868 23.303858
-2594.0256 -51486.473 -4.488701e-05 -7.999123e-05 -0.047906186 -3.1466753 350.26633 6952.12
1.0 15.233463 -1362.0555 -14029.586 9.800602e+06 -5.935476e+08 0.040984035 0.6243288
-55.822533 -574.989 401668.22 -2.4325974e+07 0.0016796911 0.025587514 -2.2878327 -23.56537
16461.984 -996976.6 6.884052e-05 0.0010486796 -0.09376461 -0.965804 674.6785 -40860.125
2.8213624e-06 4.297912e-05 -0.0038428523 -0.039582547 27.65105 -1674.6128 1.1563081e-07 1.7614577e-06
-0.00015749558 -0.0016222524 1.1332515 -68.632385 1.0 -2.1492076 -368.60355 112992.83
3.6480888e+06 -7.927304e+08 0.119003356 -0.2557629 -43.86506 13446.525 434134.8 -9.4337576e+07
0.014161798 -0.030436644 -5.220089 1600.1816 51663.496 -1.1226487e+07 0.0016853015 -0.003622063
-0.62120813 190.42699 6148.1294 -1.3359898e+06 0.00020055653 -0.00043103762 -0.07392585 22.66145
731.648 -158987.25 2.38669e-05 -5.1294923e-05 -0.008797424 2.6967885 87.068565 -18920.016
1.0 11.638411 1170.829 -75934.8 4.9114315e+06 1.1039538e+09 -0.42743427 -4.9746556
-500.45242 32457.135 -2.099314e+06 -4.7186768e+08 0.18270005 2.1263382 213.91052 -13873.291
897318.8 2.0169242e+08 -0.07809226 -0.9088698 -91.432686 5929.92 -383544.78 -8.621025e+07
0.03337931 0.3884821 39.081463 -2534.6511 163940.19 3.6849216e+07 -0.01426746 -0.16605057
-16.704756 1083.3967 -70073.66 -1.5750617e+07 1.0 -44.57114 -3897.636 493411.2
