deep_learning_based/logs/xKS50/theta_IN.npy (npy, 230528 bytes, 1 tensors)

array f4 [1, 1600, 36]
000000 00 00 80 3f d0 5e 89 41 0a 26 20 45 7a 18 ca c8
       1.0 17.171295 2562.3774 -413891.8
000010 ff a8 a9 4a 42 2e f7 4f 7d 9d cf be 59 d0 de c0
       5.5594235e+06 8.294008e+09 -0.40549842 -6.962933
000020 48 e1 81 c4 1e e6 23 48 06 98 09 ca 77 76 48 cf
       -1039.04 167832.47 -2.2543375e+06 -3.363207e+09
000030 11 60 28 3e 8a b3 34 40 1f aa d2 43 e7 eb 84 c7
       0.16442896 2.8234582 421.32907 -68055.805
000040 24 2d 5f 49 1d 93 a2 4e 43 8d 88 bd 57 8c 92 bf
       914130.25 1.3637751e+09 -0.066675685 -1.1449078
000050 28 d9 2a c3 0a 99 d7 46 cc fe b4 c8 f8 d8 03 ce
       -170.84827 27596.52 -370678.38 -5.5300864e+08
000060 75 7c dd 3c 45 b3 ed 3e b2 8e 8a 42 62 d9 2e c6
       0.027036885 0.46425834 69.2787 -11190.346
000070 60 c9 12 48 1a db 55 4d e4 9f 33 bc 2f c6 40 be
       150309.5 2.2424413e+08 -0.010963414 -0.18825601
000080 3f bd e0 c1 56 cd 8d 45 43 16 6e c7 ba 6f ad cc
       -28.092405 4537.667 -60950.26 -9.093064e+07
000090 00 00 80 3f 88 50 04 c2 83 e5 2a c5 fc 53 9e 48
       1.0 -33.078644 -2734.3445 324255.88
0000a0 f9 82 57 4c 86 e3 ab cf f7 eb e4 3e 5d a3 6c c1
       5.6495076e+07 -5.76763e+09 0.44711277 -14.789884
0000b0 ee d1 98 c4 bc 94 0d 48 4b b7 c0 4b 13 b5 19 cf
       -1222.5603 144978.94 2.525967e+07 -2.578781e+09
0000c0 29 b5 4c 3e 9d 9b d3 c0 d4 a7 08 c4 ef 35 7d 47
       0.19990982 -6.612746 -546.6223 64821.934
0000d0 e1 54 2c 4b f2 72 89 ce 08 0e b7 3d a4 39 3d c0
       1.1293921e+07 -1.1530058e+09 0.08938223 -2.956643
0000e0 dd 66 74 c3 6d 6d e2 46 70 1a 9a 4a 21 d2 f5 cd
       -244.40181 28982.713 5.049656e+06 -5.1552362e+08
0000f0 3a b1 23 3d c1 35 a9 bf e4 8c da c2 2b 7a 4a 46
       0.03996394 -1.3219529 -109.27518 12958.542
000100 97 cd 09 4a bb d1 5b cd b9 60 92 3c d7 4f 17 bf
       2.2577658e+06 -2.304972e+08 0.017868387 -0.591062
000110 ed 6e 43 c2 6f 0f b5 45 3e 74 76 49 68 91 c4 cc
       -48.858326 5793.929 1.0094759e+06 -1.0305824e+08
000120 00 00 80 3f 88 59 02 c1 7c ea 66 45 34 50 3d c8
       1.0 -8.146858 3694.6553 -193856.81
000130 e0 db 2d cc e0 d6 fd 4f e3 2d 78 be 32 bc fc 3f
       -4.5576064e+07 8.5174354e+09 -0.24236254 1.9744933
000140 8c dc 5f c4 a1 87 37 47 2b 8c 28 4b a9 15 f6 ce
       -895.44604 46983.63 1.1045931e+07 -2.0643073e+09
000150 f0 98 70 3d 9e 03 f5 be c8 05 59 43 4a ec 31 c6
       0.058739603 -0.47854322 217.02258 -11387.072
000160 00 66 23 ca 18 91 ee 4d 49 3f 69 bc 6c 87 ed 3d
       -2.67712e+06 5.003108e+08 -0.01423628 0.11598095
000170 80 64 52 c2 cc 7c 2c 45 1a 68 1e 49 52 47 e7 cc
       -52.598145 2759.7998 648833.6 -1.2125659e+08
000180 1d 1f 62 3b c3 45 e6 bc 12 f7 4b 41 d0 37 27 c4
       0.0034503408 -0.028109437 12.74782 -668.8721
000190 3d 91 19 c8 8c 36 e0 4b ac 36 5b ba dc 3c df 3b
       -157252.95 2.9388056e+07 -0.0008362334 0.006812675
0001a0 e9 bb 45 c0 0b 1c 22 43 3a e0 14 47 07 5d d9 ca
       -3.0895941 162.10954 38112.227 -7.1225635e+06
0001b0 00 00 80 3f 6c 4c d9 3f e7 45 86 44 30 2a 82 47
       1.0 1.6976447 1074.1844 66644.375
0001c0 f4 f9 e7 ca e8 d8 b6 cc db 06 11 be 36 34 76 be
       -7.601402e+06 -9.586464e+07 -0.14162771 -0.24043354
0001d0 61 22 18 c3 c3 7a 13 c6 ca 6a 83 49 82 2b 4f 4b
       -152.1343 -9438.69 1.0765692e+06 1.357709e+07
0001e0 89 51 a4 3c 2b 7a 0b 3d 18 5f ac 41 f8 18 a7 44
       0.02005841 0.034052055 21.546432 1336.7803
0001f0 03 e6 14 c8 62 ba ea c9 2a 2d 3a bb dd 07 9e bb
       -152472.05 -1.9228922e+06 -0.0028408268 -0.0048227147
000200 f4 4c 43 c0 3b 53 3d c3 88 b4 a8 46 db f9 84 48
       -3.0515718 -189.32512 21594.266 272334.84
000210 23 f1 d2 39 5f 0d 33 3a a3 47 dd 3e 6e 82 d6 41
       0.00040233982 0.00068303006 0.43218717 26.813686
000220 8c 25 3f c5 2a aa 16 c7 76 00 6f b8 bd de ca b8
       -3058.3467 -38570.164 -5.698247e-05 -9.673599e-05
000230 01 b7 7a bd 3e 0b 73 c0 c6 92 d8 43 d5 b4 aa 45
       -0.061209682 -3.7975612 433.14667 5462.604
000240 00 00 80 3f df 1d 78 41 72 c0 a8 c4 c8 52 35 c6
       1.0 15.507293 -1350.0139 -11604.695
000250 a0 91 08 4b 69 a2 29 ce d4 11 51 3d ab a1 4a 3f
       8.950176e+06 -7.114983e+08 0.051042393 0.79152936
000260 de d0 89 c2 36 15 14 c4 cd 10 df 48 68 89 0a cc
       -68.90794 -592.3314 456838.4 -3.6316576e+07
000270 1d be 2a 3b 18 7c 25 3d 3b 1a 61 c0 42 df f1 c1
       0.0026053258 0.04040155 -3.517226 -30.234013
000280 40 2c b6 46 a7 47 e2 c9 1a 71 0b 39 d6 25 07 3b
       23318.125 -1.8536849e+06 0.00013298207 0.0020621917
000290 18 d6 37 be 1d 88 c5 bf d0 c6 94 44 42 cc b8 c7
       -0.17952764 -1.5432163 1190.2129 -94616.516
0002a0 17 c2 e3 36 9a be dc 38 96 22 16 bc e0 51 a1 bd
       6.787722e-06 0.0001052592 -0.009163519 -0.078769445
0002b0 57 01 73 42 9f eb 96 c5 51 01 ba 34 fb 46 b4 36
       60.75131 -4829.4526 3.4646158e-07 5.3726812e-06
0002c0 62 39 f5 b9 14 bf 83 bb 04 75 46 40 bf 81 76 c3
       -0.00046772795 -0.004020581 3.100892 -246.50682
0002d0 00 00 80 3f 64 5b 11 c0 b9 f1 e7 c3 b7 3a d0 47
       1.0 -2.271203 -463.88846 106613.43
0002e0 72 bf 85 4a 1c 47 1e ce 51 f2 0b 3e 6b ec 9e be
       4.382649e+06 -6.638651e+08 0.13666655 -0.31039748
0002f0 97 97 7d c2 f6 a9 63 46 18 3b 12 49 db 0c ad cc
       -63.398037 14570.49 598961.5 -9.072815e+07
000300 13 02 99 3c 99 c1 2d bd 59 a1 0a c1 8f e9 f8 44
       0.018677747 -0.042420957 -8.6643915 1991.2987
000310 01 e1 9f 47 90 33 3d cb e9 49 27 3b 2b f9 bd bb
       81858.01 -1.2399504e+07 0.0025526232 -0.0057975254
000320 a7 91 97 bf 6c 12 88 43 01 cd 2e 46 2b dc ce c9
       -1.1841325 272.14392 11187.251 -1.6945974e+06
000330 f5 e6 b6 39 39 b4 4f ba 1b b7 25 be 9a c5 14 42
       0.00034885822 -0.00079232786 -0.1618313 37.19297
000340 8a 1d bf 44 b3 2a 62 c8 0e f9 47 38 e9 16 e3 b8
       1528.9231 -231594.8 4.7677247e-05 -0.00010828471
000350 8e 2e b5 bc 39 a8 a2 40 e0 f3 50 43 85 46 f7 c6
       -0.022116926 5.083035 208.95264 -31651.26
000360 00 00 80 3f 5e 7a 48 41 52 63 7d 44 3a 99 95 c7
       1.0 12.529875 1013.5519 -76594.45
000370 54 8a d4 4a 71 42 67 4e cc 66 cb be 89 49 9f c0
       6.964522e+06 9.699728e+08 -0.39726865 -4.9777265
000380 82 53 c9 c3 27 b9 ed 46 09 df 28 ca 8c be b7 cd
       -402.6524 30428.576 -2.7667862e+06 -3.8533978e+08
000390 31 9c 21 3e 8c 1e fd 3f 10 f6 1f 43 47 e1 3c c6
       0.15782239 1.9774947 159.96118 -12088.319
0003a0 ac 2c 86 49 e2 fd 11 4d c0 67 80 bd dd 1c 49 bf
       1.0991575e+06 1.5308342e+08 -0.06269789 -0.78559667
0003b0 b4 30 7e c2 7c 12 96 45 9a 36 d5 c8 e3 fd 67 cc
       -63.54756 4802.3105 -436660.8 -6.0815244e+07
0003c0 aa 0b cc 3c a5 ca 9f 3e b1 f6 c9 41 d6 79 ee c4
       0.024907906 0.31209293 25.245455 -1907.8074
0003d0 ea 67 29 48 7b 53 b8 4b 2f 1f 22 bc b6 eb fd bd
       173471.66 2.415999e+07 -0.00989513 -0.12398474
0003e0 b7 77 20 c1 5f 7a 3d 44 6d 99 86 c7 37 74 12 cb
       -10.029227 757.91205 -68914.85 -9.598007e+06
0003f0 00 00 80 3f 86 6e 39 c2 70 dc 7a c5 86 1f 04 49
       1.0 -46.357933 -4013.7773 541176.4
