deep_learning_based/logs/oldBurgers40/theta_IN.npy (npy, 230528 bytes, 1 tensors)

array f4 [1, 1600, 36]
1.0 0.6678432 -5.461033 128.81696 -60011.133 -9.768395e+06 0.017610341 0.011760947
-0.09617066 2.2685106 -1056.8165 -172024.77 0.00031012413 0.0002071143 -0.0016935981 0.039949246
-18.6109 -3029.415 5.461392e-06 3.6473537e-06 -2.9824841e-05 0.0007035199 -0.32774433 -53.349033
9.6176976e-08 6.4231145e-08 -5.2522563e-07 1.2389225e-05 -0.005771689 -0.93949467 1.6937094e-09 1.1311323e-09
-9.249403e-09 2.1817849e-07 -0.00010164142 -0.016544823 1.0 0.20089045 13.418571 516.7545
-33045.188 -1.7175454e+06 0.045925282 0.009225951 0.6162517 23.732098 -1517.6095 -78878.76
0.0021091315 0.0004237044 0.028301531 1.0899032 -69.69665 -3622.529 9.686246e-05 1.9458743e-05
0.0012997559 0.050054114 -3.200838 -166.36566 4.448436e-06 8.936483e-07 5.9691654e-05 0.0022987493
-0.1469994 -7.6403904 2.0429567e-07 4.104105e-08 2.7413562e-06 0.00010557071 -0.006750989 -0.3508871
1.0 0.19624725 5.4855466 -344.72952 -8960.611 1.2386249e+06 0.0012472719 0.0002447737
0.0068419683 -0.42997146 -11.176319 1544.902 1.5556872e-06 3.0529932e-07 8.533794e-06 -0.0005362913
-0.013939908 1.9269128 1.940365e-09 3.807913e-10 1.0643962e-08 -6.6890107e-07 -1.7386856e-05 0.0024033843
2.4201626e-12 4.7495027e-13 1.3275915e-11 -8.343015e-10 -2.1686136e-08 2.9976736e-06 3.0186007e-15 5.923921e-16
1.6558676e-14 -1.0406008e-12 -2.7048508e-11 3.738914e-09 1.0 0.30334753 -1.1169467 -138.797
5247.706 497750.3 0.07682099 0.023303458 -0.085804954 -10.662523 403.13397 38237.67
0.0059014647 0.0017901948 -0.0065916213 -0.81910557 30.969152 2937.4558 0.00045335636 0.00013752453
-0.00050637487 -0.062924504 2.379081 225.65826 3.4827284e-05 1.05647705e-05 -3.890022e-05 -0.0048339223
0.18276335 17.33529 2.6754665e-06 8.115961e-07 -2.9883533e-06 -0.00037134672 0.014040061 1.3317143
1.0 -0.24359304 14.005716 -89.33625 -24097.54 -498067.1 0.017193109 -0.0041881218
0.24080181 -1.5359678 -414.3116 -8563.321 0.00029560298 -7.200683e-05 0.0041401316 -0.026408061
-7.1233044 -147.23012 5.082334e-06 -1.2380212e-06 7.1181734e-05 -0.00045403666 -0.12247174 -2.5313435
8.738112e-08 -2.1285432e-08 1.2238352e-06 -7.806301e-06 -0.0021056698 -0.043521658 1.502353e-09 -3.6596273e-10
2.104153e-08 -1.3421459e-07 -3.620301e-05 -0.0007482726 1.0 1.6792006 24.027874 2984.81
86750.63 -4.101617e+07 0.2466115 0.4141102 5.92555 736.0885 21393.705 -1.0115059e+07
0.060817234 0.10212434 1.4613088 181.5279 5275.9336 -2.49449e+06 0.01499823 0.025185037
0.36037558 44.76687 1301.106 -615169.94 0.003698736 0.00621092 0.08887276 11.040025
320.86768 -151707.97 0.00091215083 0.0015316843 0.021917045 2.722597 79.12966 -37412.934
1.0 0.7621357 -1.1087728 -405.68625 27495.68 838305.94 0.06451397 0.049168397
-0.071531326 -26.172428 1773.8553 54082.44 0.0041620517 0.0031720481 -0.0046147695 -1.6884872
114.43844 3489.0728 0.00026851046 0.0002046414 -0.00029771708 -0.108931 7.3828773 225.0939
1.7322674e-05 1.3202229e-05 -1.920691e-05 -0.0070275706 0.47629872 14.521701 1.1175545e-06 8.5172815e-07
-1.2391139e-06 -0.00045337647 0.03072792 0.9368525 1.0 -0.5853746 -6.657822 9.18401
00000000: 0000 803f c6f7 2a3f c8c0 aec0 24d1 0043
00000010: 226b 6ac7 cb0d 15cb 9043 903c fdb0 403c
00000020: 1ff5 c4bd 472f 1140 211a 84c4 31fe 27c8
00000030: 2898 a239 d22c 5939 b9fb ddba d2a1 233d
00000040: 20e3 94c1 a456 3dc5 0041 b736 0fc5 7436
00000050: 5c30 fab7 6c6c 383a 1bce a7be 6965 55c2
00000060: da89 ce33 72ef 8933 3bfd 0cb5 51db 4f37
00000070: 7020 bdbb b982 70bf 1ac8 e830 2e76 9b30
00000080: 4ee7 1eb2 7244 6a34 5228 d5b8 0289 87bc
00000090: 0000 803f 3ab6 4d3e 78b2 5641 4a30 0144
000000a0: 3015 01c7 4ba9 d1c9 261c 3c3d 7128 173c
000000b0: acc2 1d3f 56db bd41 81b3 bdc4 610f 9ac7
000000c0: 5b39 0a3b a424 de39 9dd8 e73c f381 8b3f
000000d0: af64 8bc2 7768 62c5 a322 cb38 553b a337
000000e0: 925c aa3a 8b05 4d3d 88da 4cc0 9c5d 26c3
000000f0: c643 9536 0be3 6f35 6d5d 7a38 9da6 163b
00000100: 0387 16be 147e f4c0 5e5c 5b34 1d45 3033
00000110: 24f8 3736 d865 dd38 6637 ddbb 79a7 b3be
00000120: 0000 803f 0af5 483e 9989 af40 615d acc3
00000130: 7202 0cc6 0733 9749 807b a33a f854 8039
00000140: 9732 e03b 3825 dcbe 34d2 32c1 dd1c c144
00000150: 01cd d035 05e8 a334 5e2c 0f37 e695 0cba
00000160: 3664 64bc 14a5 f63f 4357 0531 9c57 d12f
00000170: a4dc 3632 888e 33b5 fdd9 91b7 1982 1d3b
00000180: c64d 2a2c c6af 052b 688d 692d c054 65b0
00000190: 5148 bab2 a42b 4936 5b83 5927 d2be 2a26
000001a0: b525 9528 9873 92ab d3eb edad d677 8031
000001b0: 0000 803f 5e50 9b3e 1cf8 8ebf 08cc 0ac3
000001c0: a6fd a345 ca0a f348 5354 9d3d e5e6 be3c
000001d0: 82ba afbd b299 2ac1 2691 c943 ac5d 1547
000001e0: 1361 c13b f8a4 ea3a 87fe d7bb e7b0 51bf
000001f0: d3c0 f741 4b97 3745 76b0 ed39 7634 1039
00000200: 3ebe 04ba 90de 80bd dd42 1840 84a8 6143
00000210: 8313 1238 583f 3137 cb28 23b8 e165 9ebb
00000220: 5126 3b3e adae 8a41 2a8c 3336 76dc 5935
00000230: 858b 48b6 50b1 c2b9 4908 663c 9d75 aa3f
00000240: 0000 803f 7470 79be 6a17 6041 29ac b2c2
00000250: 1443 bcc6 6332 f3c8 90d8 8c3c 833c 89bb
00000260: c094 763e 989a c4bf e327 cfc3 49cd 05c6
00000270: 29fb 9a39 5f02 97b8 f1a9 873b b855 d8bc
00000280: 1cf2 e3c0 e93a 13c3 eb88 aa36 162a a6b5
00000290: 6747 9538 c50b eeb9 77d2 fabd 8801 22c0
000002a0: 47a6 bb33 29d7 b6b2 a842 a435 cff7 02b7
000002b0: 47ff 09bb c443 32bd 597b ce30 ad30 c9af
000002c0: d0be b432 a01c 10b4 b0d8 17b8 b927 44ba
000002d0: 0000 803f 0cf0 d63f 1639 c041 f68c 3a45
000002e0: 516f a947 da76 1ccc ba87 7c3e 4106 d43e
000002f0: 1b9e bd40 aa05 3844 6923 a746 f357 1acb
00000300: 7e1b 793d 9126 d13d 2b0c bb3f 2487 3543
00000310: 78df a445 6840 18ca 23bb 753c da50 ce3c
00000320: 2683 b83e 4611 3342 64a3 a244 1f30 16c9
00000330: 7e66 723b f984 cb3b ec02 b63d f1a3 3041
00000340: 106f a043 fe26 14c8 681d 6f3a ccc2 c83a
00000350: 608b b33c 073f 2e40 6342 9e42 ef24 12c7
00000360: 0000 803f 531b 433f 44ec 8dbf d7d7 cac3
00000370: 5ccf d646 1faa 4c49 e61f 843d cd64 493d
00000380: 047f 92bd 2261 d1c1 5fbb dd44 7142 5347
00000390: d261 883b 23e2 4f3b 7e37 97bb 5920 d8bf
000003a0: 7be0 e442 2a11 5a45 ddc6 8c39 0295 5639
000003b0: e916 9cb9 3717 dfbd 8840 ec40 0a18 6143
000003c0: 2950 9137 247f 5d37 861e a1b7 8947 e6bb
000003d0: 6ddd f33e e358 6841 e1fe 9535 50a2 6435
000003e0: a14f a6b5 29b3 edb9 1eb9 fb3c 91d5 6f3f
000003f0: 0000 803f 1cdb 15bf e10c d5c0 b4f1 1241
