deep_learning_based/logs/oldBurgers40/theta_FIN.npy (npy, 230528 bytes, 1 tensors)

array f4 [1, 1600, 36]
000000 00 00 80 3f dc ad 23 bf 2a 16 c8 c2 35 f6 11 46
       1.0 -0.63937163 -100.04329 9341.552
000010 29 d0 f0 c8 b3 76 e5 cc ae c2 b5 3d cb 6c 68 bd
       -493185.28 -1.2030505e+08 0.08875023 -0.056744378
000020 d4 0f 0e c1 27 44 4f 44 4e fa 2a c7 6c eb 22 cb
       -8.878864 829.0649 -43770.305 -1.06771e+07
000030 de 0c 01 3c ac 05 a5 bb 73 ba 49 bf ce 28 93 42
       0.007876603 -0.0050360765 -0.78800124 73.5797
000040 fe c9 72 c5 b2 58 67 c9 79 40 37 3a 02 55 ea b9
       -3884.6245 -947595.1 0.0006990503 -0.00044695294
000050 3c 3a 8f bd 85 f7 d0 40 73 61 ac c3 a4 41 a4 c7
       -0.06993529 6.530215 -344.76132 -84099.28
000060 f1 1b 82 38 4e 60 26 b8 30 62 cb bb eb 5d 14 3f
       6.2040875e-05 -3.9667175e-05 -0.006206773 0.5795581
000070 fb c7 f4 c1 a5 3e e9 c5 66 c1 b8 36 3b 41 6c b6
       -30.597647 -7463.8306 5.506142e-06 -3.520471e-06
000080 17 67 10 ba 76 ae 52 3d 8a cb 2d c0 ab 9a 25 c4
       -0.00055085256 0.05143591 -2.715548 -662.4167
000090 00 00 80 3f 4c 19 01 40 ce 34 d1 42 df a0 e7 c4
       1.0 2.017169 104.603134 -1853.0272
0000a0 ee d8 64 c9 48 80 10 cb b0 3e c8 3c c1 f6 49 3d
       -937358.9 -9.470024e+06 0.024443954 0.04930759
0000b0 7c a4 23 40 66 2e 35 c2 84 01 b3 c6 35 0f 62 c8
       2.5569143 -45.29531 -22912.758 -231484.83
0000c0 02 a2 1c 3a 3b fa 9d 3a 93 00 80 3d 9e b8 8d bf
       0.0005975069 0.0012052724 0.062501095 -1.1071966
0000d0 04 05 0c c4 3c d3 b0 c5 d9 09 75 37 5a 24 f7 37
       -560.07837 -5658.4043 1.4605431e-05 2.9461622e-05
0000e0 95 3f c8 3a de b5 dd bc 69 0c 5b c1 54 50 0a c3
       0.0015277738 -0.02706426 -13.69053 -138.31378
0000f0 b2 ab bf 34 eb 50 41 35 b5 a2 1c 38 60 6c 2d ba
       3.5701447e-07 7.2015854e-07 3.734483e-05 -0.00066155754
000100 56 57 ab be 40 61 58 c0 12 ed 15 32 8d 36 97 32
       -0.3346507 -3.3809357 8.726845e-09 1.760352e-08
000110 f1 0a 75 35 22 a7 87 b7 2f 06 06 bc f6 40 a9 bd
       9.1285534e-07 -1.6171081e-05 -0.008180185 -0.082643434
000120 00 00 80 3f 8a 62 de bf dc aa 17 c2 54 ca 93 45
       1.0 -1.7373822 -37.916855 4729.291
000130 00 91 5e c4 6d 94 b0 cb ac 28 1f 3d 89 42 8a bd
       -890.2656 -2.3144666e+07 0.038857147 -0.06750972
000140 6e 96 bc bf 4a c4 37 43 6b 5f 0a c2 7b 90 5b c9
       -1.4733407 183.76675 -34.59318 -899335.7
000150 18 e7 c5 3a 94 ea 2b bb c9 7e 6a bd 38 80 e4 40
       0.0015098779 -0.0026232349 -0.057249818 7.1406517
000160 7f 0e ac bf 9e 81 08 c7 f2 13 76 38 04 c4 d5 b8
       -1.3441924 -34945.617 5.8669546e-05 -0.00010193142
000170 00 ca 11 bb f0 0f 8e 3e ad f0 55 bd 63 bc a9 c4
       -0.0022245646 0.27746534 -0.05223148 -1357.8871
000180 7c fd 18 36 b5 e6 84 b6 40 47 b5 b8 f1 a4 30 3c
       2.2797312e-06 -3.9607644e-06 -8.644024e-05 0.010781513
000190 79 02 05 bb f2 0d 53 c2 7d 3b be 33 d0 40 25 b4
       -0.0020295663 -52.76362 8.858385e-08 -1.5390401e-07
0001a0 1b 68 61 b6 04 a5 db 39 56 63 a5 b8 31 37 03 c0
       -3.358821e-06 0.0004189388 -7.886316e-05 -2.0502436
0001b0 00 00 80 3f fc a3 7d bf 1e f7 8e c2 40 66 e9 44
       1.0 -0.99078345 -71.48265 1867.1953
0001c0 00 60 f6 42 08 9b 90 4a 9e 75 09 3e 4a 31 08 be
       123.1875 4.738436e+06 0.13423774 -0.13300052
0001d0 dc 87 19 c1 e8 a5 7a 43 92 4a 84 41 cf 4a 1b 49
       -9.595669 250.64807 16.536411 636076.94
0001e0 32 9e 93 3c e6 41 92 bc 7d e0 a4 bf f1 95 06 42
       0.01801977 -0.017853688 -1.2881008 33.646427
0001f0 5f 11 0e 40 c3 c4 a6 47 f6 86 1e 3b ed 10 1d bb
       2.2198102 85385.52 0.002418933 -0.0023966387
000200 c6 0f 31 be 27 88 90 40 23 91 98 3e d6 17 33 46
       -0.17291173 4.51662 0.2979823 11461.959
000210 1e 3e aa 39 71 ac a8 b9 95 25 be bc 89 36 1b 3f
       0.00032471208 -0.00032171936 -0.02321128 0.6063009
000220 88 d7 23 3d 14 54 c0 44 eb d2 36 38 8f 23 35 b8
       0.04000047 1538.6274 4.3588614e-05 -4.318688e-05
000230 f3 32 4c bb fe ae a6 3d 3d f3 af 3b b7 8a 4e 43
       -0.0031158298 0.08138846 0.0053695724 206.54185
000240 00 00 80 3f 9b ba 5c 3f dc bc e7 c3 c7 9f da c5
       1.0 0.8622224 -463.47546 -6995.972
000250 ae b8 78 4a a4 bb 44 4c 98 97 5c 3d 12 33 3e 3d
       4.0750515e+06 5.157237e+07 0.05385551 0.046435423
000260 87 af c7 c1 c5 62 bc c3 fe 51 56 48 c0 85 29 4a
       -24.960707 -376.77164 219463.97 2.777456e+06
000270 e7 14 3e 3b 85 e4 23 3b 17 11 ac bf 6f 54 a2 c1
       0.0029004158 0.0025008034 -1.3442715 -20.291227
000280 60 ad 38 46 54 13 12 48 86 ca 23 39 6f 39 0d 39
       11819.344 149581.31 0.00015620337 0.00013468204
000290 94 44 94 bd b0 e0 8b bf 5b 22 1f 44 39 be fb 45
       -0.07239643 -1.0927944 636.5368 8055.778
0002a0 09 23 0d 37 f9 61 f3 36 78 85 7f bb d8 0f 71 bd
       8.412412e-06 7.25337e-06 -0.0038989466 -0.058853
0002b0 c2 1f 09 42 8c ec d8 43 5e 3b f3 34 51 b8 d1 34
       34.281013 433.84802 4.5305472e-07 3.9063391e-07
0002c0 02 2e 5c b9 5d b8 4f bb fb 50 ec 3f bc eb ba 41
       -0.00020997974 -0.0031695582 1.8462213 23.365105
0002d0 00 00 80 3f 30 c6 07 be ef a5 2c 43 92 cb 18 46
       1.0 -0.13259196 172.64818 9778.893
0002e0 ec 9b c7 c8 c2 31 97 cc 3c 5d 5d 3e 15 cf ea bc
       -408799.38 -7.926939e+07 0.21617597 -0.028663198
0002f0 20 4a 15 42 63 1f 04 45 4d 9a ac c7 05 bd 82 cb
       37.322388 2113.9617 -88372.6 -1.7136138e+07
000300 1c 6a 3f 3d 49 0a cb bb 5d 17 01 41 6e 7e e4 43
       0.046732053 -0.0061962944 8.068204 456.98773
000310 11 40 95 c6 96 19 62 ca 51 84 25 3c d4 91 af ba
       -19104.033 -3.7044215e+06 0.0101023475 -0.0013394901
000320 5e 40 df 3f 5d 94 c5 42 ab 0e 81 c5 6f 82 43 c9
       1.7441518 98.78977 -4129.8335 -800806.94
000330 82 1f 0f 3b d6 d0 97 b9 e1 0b c1 3e 0a d9 aa 41
       0.0021838848 -0.0002895656 0.37704375 21.355976
000340 54 31 5f c4 ce 0e 29 c8 a6 84 f7 39 93 46 83 b8
       -892.77075 -173115.22 0.00047210342 -6.259712e-05
000350 8f ed a6 3d 96 bb 93 40 df fe 40 c3 5a 2f 12 c7
       0.081507795 4.6166487 -192.99559 -37423.35
000360 00 00 80 3f 30 11 49 3f 5c e1 a5 42 2d 99 c8 45
       1.0 0.7854185 82.940155 6419.147
000370 f0 f9 fe c8 d9 ed 3d cc ba f2 4a 3d 34 66 1f 3d
       -522191.5 -4.9788772e+07 0.04954789 0.038915828
000380 1a 81 83 40 10 07 9f 43 f9 22 ca c6 c2 91 16 ca
       4.1095095 318.05518 -25873.486 -2.4669285e+06
000390 f4 e3 20 3b 90 bb fc 3a 1d 81 50 3e b6 24 7c 41
       0.0024549933 0.0019281972 0.20361753 15.758963
0003a0 41 3f a0 c4 8d bb ee c7 d6 18 ff 38 a1 5b c8 38
       -1281.9767 -122231.1 0.000121639736 9.5538104e-05
0003b0 92 4b 25 3c 0a e4 47 3f b3 13 7e c2 58 42 bd c5
       0.010088818 0.78082335 -63.519238 -6056.293
0003c0 78 3b ca 36 45 d6 9e 36 5b 0a 03 3a 77 77 1e 3d
       6.026992e-06 4.733711e-06 0.00049987965 0.03868815
0003d0 72 6c 49 c0 cc 09 96 c3 ac 52 a0 34 59 d7 7b 34
       -3.147244 -300.07654 2.9862474e-07 2.345454e-07
0003e0 d6 c4 cf 37 08 41 fb 3a 8d ae 1f be fb e3 6d c1
       2.4767982e-05 0.0019169161 -0.1559393 -14.868159
0003f0 00 00 80 3f 02 46 09 40 b4 dc 6f c1 18 8d 2e c6
       1.0 2.144898 -14.991383 -11171.273
