deep_learning_based/logs/xKdV15/theta_FIN.npy (npy, 230528 bytes, 1 tensors)

array f4 [1, 1600, 36]
1.0 -0.03370066 -0.3768376 15.811722 274.3606 -12763.527 0.0020614862 -6.947345e-05
-0.00077684555 0.032595646 0.5655906 -26.311836 4.2497254e-06 -1.4321856e-07 -1.6014563e-06 6.719548e-05
0.0011659572 -0.054241486 8.76075e-09 -2.9524308e-10 -3.3013803e-09 1.3852255e-07 2.4036046e-06 -0.00011181807
1.8060166e-11 -6.086395e-13 -6.80575e-12 2.8556232e-10 4.9549977e-09 -2.3051143e-07 3.7230784e-14 -1.254702e-15
-1.402996e-14 5.886828e-13 1.021466e-11 -4.7519616e-10 1.0 -3.7216148 90.29466 -1228.2266
-7609.4307 1.9047616e+06 0.1888582 -0.7028575 17.052887 -231.96065 -1437.1034 359729.84
0.03566742 -0.1327404 3.2205777 -43.80767 -271.40875 67937.93 0.0067360844 -0.025069112
0.60823244 -8.2734375 -51.257767 12830.635 0.0012721648 -0.0047345073 0.114869684 -1.5625066
-9.6804495 2423.1707 0.00024025874 -0.0008941505 0.021694083 -0.29509217 -1.8282323 457.63562
1.0 0.030501604 -1.5619235 13.908146 602.09814 -20903.492 -0.002927661 -8.929835e-05
0.0045727827 -0.040718336 -1.7627392 61.198338 8.571199e-06 2.6143533e-07 -1.3387557e-05 0.000119209486
0.005160703 -0.17916799 -2.5093565e-08 -7.6539397e-10 3.9194227e-08 -3.4900495e-07 -1.5108789e-05 0.0005245431
7.3465456e-11 2.2408143e-12 -1.1474742e-10 1.0217682e-09 4.4233413e-08 -1.5356845e-06 -2.1508194e-13 -6.5603443e-15
3.3594153e-13 -2.991391e-12 -1.2950044e-10 4.4959636e-09 1.0 0.061657965 0.32353687 0.24703217
176.13892 25364.516 0.0017335191 0.000106885265 0.00056085736 0.00042823498 0.30534017 43.96987
3.0050885e-06 1.8528765e-07 9.722569e-07 7.423535e-07 0.00052931305 0.07622261 5.2093783e-09 3.2119965e-10
1.6854259e-09 1.286884e-09 9.1757425e-07 0.00013213335 9.030557e-12 5.5680574e-13 2.921718e-12 2.230838e-12
1.5906325e-09 2.290557e-07 1.5654643e-14 9.652334e-16 5.0648543e-15 3.8672005e-15 2.7573918e-12 3.9707243e-10
1.0 0.0091040805 -1.0344945 -9.031471 718.83777 -5895.418 0.002414748 2.198406e-05
-0.0024980437 -0.021808729 1.7358121 -14.2359495 5.8310084e-06 5.308597e-08 -6.0321463e-06 -5.2662584e-05
0.004191549 -0.03437623 1.4080416e-08 1.2818924e-10 -1.4566113e-08 -1.2716687e-07 1.0121535e-05 -8.300994e-05
3.400066e-11 3.0954473e-13 -3.5173496e-11 -3.0707598e-10 2.4440958e-08 -2.004481e-07 8.2103026e-14 7.4747254e-16
-8.493513e-14 -7.4151113e-13 5.9018755e-11 -4.8403165e-10 1.0 -1.5806307 -35.583725 797.3766
9929.217 -776977.06 0.35133237 -0.5553267 -12.501715 280.1442 3488.4553 -272977.2
0.12343443 -0.19510424 -4.3922567 98.42373 1225.6072 -95905.72 0.04336651 -0.06854644
-1.543142 34.57944 430.5955 -33694.785 0.015236059 -0.024082582 -0.54215574 12.148877
151.28214 -11838.068 0.005352921 -0.008460991 -0.19047686 4.268294 53.15031 -4159.0967
1.0 0.5549432 17.712534 -19.927227 4642.615 -152789.89 0.06318175 0.035062283
1.1191089 -1.2590371 293.32855 -9653.533 0.0039919335 0.0022152965 0.07070726 -0.079548165
18.533012 -609.92706 0.00025221735 0.0001399663 0.004467408 -0.005025992 1.1709481 -38.536263
1.5935533e-05 8.843316e-06 0.00028225867 -0.000317551 0.07398255 -2.4347885 1.0068349e-06 5.5873613e-07
1.7833596e-05 -2.0063426e-05 0.0046743467 -0.1538342 1.0 -0.39860633 5.4644604 -72.65476
00000000: 0000 803f b409 0abd dcf0 c0be d0fc 7c41
00000010: 282e 8943 1c6e 47c6 001a 073b 46b2 91b8
00000020: 39a5 4bba 0383 053d 8cca 103f a47e d2c1
00000030: dd98 8e36 9ec7 19b4 9ff1 d6b5 4ceb 8c38
00000040: 08d3 983a 522c 5ebd 3082 1632 c54f a2af
00000050: 7fde 62b1 cabc 1434 9d4d 2136 df7f eab8
00000060: e1db 9e2d 1951 2bab bf74 efac 53fd 9c2f
00000070: 9f40 aa31 8082 77b4 2cac 2729 55d2 b4a6
00000080: c5bd 7ca8 11b3 252b bdb2 332d f59e 02b0
00000090: 0000 803f f02e 6ec0 de96 b442 4087 99c4
000000a0: 72cb edc5 cd83 e849 0b64 413e 78ee 33bf
000000b0: 506c 8841 edf5 67c3 4fa3 b3c4 3ba6 af48
000000c0: 0018 123d 19ed 07be f21d 4e40 0e3b 2fc2
000000d0: 52b4 87c3 f7b0 8447 5fba dc3b bd5d cdbc
000000e0: 1fb5 1b3f 0060 04c1 f407 4dc2 8a7a 4846
000000f0: c4be a63a ed23 9bbb cc40 eb3d 3700 c8bf
00000100: 1fe3 1ac1 bb72 1745 f7ed 7b39 6d65 6aba
00000110: cab7 b13c 5216 97be 8403 eabf 5cd1 e443
00000120: 0000 803f 80de f93c 1ced c7bf c487 5e41
00000130: 4886 1644 fc4e a3c6 00de 3fbb b045 bbb8
00000140: 48d7 953b 45c8 26bd 70a1 e1bf 19cb 7442
00000150: 05cd 0f37 665b 8c34 1f9b 60b7 1b00 fa38
00000160: 1d1b a93b d077 37be 558d d7b2 d063 52b0
00000170: 8256 2833 e05e bbb4 c17b 7db7 7e81 093a
00000180: 608d a12e ecae 1d2c 0e55 fcae 466e 8c30
00000190: 27fb 3d33 b81d ceb5 2629 72aa 7f5c eca7
000001a0: 471e bd2a 1c80 52ac 2263 0eaf ea7a 9a31
000001b0: 0000 803f 108d 7c3d a0a6 a53e 00f6 7c3e
000001c0: 9023 3043 0829 c646 4037 e33a 9727 e038
000001d0: 8006 133a ba84 e039 8c55 9c3e 26e1 2f42
000001e0: 07ab 4936 7bf3 4634 7e7e 8235 2546 4735
000001f0: 99c1 0a3a 9a1a 9c3d 2dfe b231 d594 b02f
00000200: a7a4 e730 35de b030 394f 7635 478d 0a39
00000210: 03de 1e2d 15ba 1c2b fe98 4d2c 34fb 1c2c
00000220: 689d da30 5af2 7534 2601 8d28 d41a 8b26
00000230: 097b b627 a154 8b27 c108 422c fa4a da2f
00000240: 0000 803f 4829 153c 516a 84bf e880 10c1
00000250: 9eb5 3344 583b b8c5 c040 1e3b 696a b837
00000260: 38b6 23bb 38a8 b2bc 172f de3f 73c6 63c1
00000270: fba7 c336 a400 6433 be67 cab6 05e2 5cb8
00000280: 4359 893b 17ce 0cbd 53e6 7132 10f2 0c2f
00000290: 713e 7ab2 5d8b 08b4 a9cf 2937 9f15 aeb8
000002a0: 5789 152e 1942 ae2a d6b1 1aae 1ad1 a8af
000002b0: 3cf2 d132 c13a 57b4 2ce1 b829 bd71 5726
000002c0: c541 bfa9 82b7 50ab 9bc8 812e b30c 05b0
000002d0: 0000 803f 1b52 cabf bc55 0ec2 1a58 4744
000002e0: de24 1b46 11b1 3dc9 d6e1 b33e e429 0ebf
000002f0: 0607 48c1 7512 8c43 4907 5a45 264a 85c8
00000300: 31cb fc3d 68c9 47be 5e8d 8cc0 f3d8 c442
00000310: 6e33 9944 dc50 bbc7 15a1 313d 1362 8cbd
00000320: ad85 c5bf 5951 0a42 394c d743 c99e 03c7
00000330: aaa0 793c d648 c5bc b8ca 0abf cd61 4241
00000340: 3a48 1743 46f8 38c6 8e67 af3b f89f 0abc
00000350: 5e0c 43be dd95 8840 eb99 5442 c6f8 81c5
00000360: 0000 803f c210 0e3f 45b3 8d41 f66a 9fc1
00000370: ec14 9145 7935 15c8 6f65 813d 789d 0f3d
00000380: f63e 8f3f 2128 a1bf 0eaa 9243 22d6 16c6
00000390: c4ce 823b 822e 113b f8ce 903d 26ea a2bd
000003a0: 9c43 9441 557b 18c4 0a3c 8439 ebc3 1239
000003b0: 5663 923b 14b1 a4bb a1e1 953f 2225 1ac2
000003c0: 4cad 8537 c15d 1437 1efc 9339 f97c a6b9
000003d0: 2a84 973d 93d3 1bc0 9522 8735 0efc 1535
000003e0: 5b99 9537 e14d a8b7 432b 993b b686 1dbe
000003f0: 0000 803f 2116 ccbe dcdc ae40 3d4f 91c2
