deep_learning_based/logs/xKdV15/theta_IN.npy (npy, 230528 bytes, 1 tensors)

array f4 [1, 1600, 36]
0	0x3f800000	1.0
1	0xbdb1f2cb	-0.08688887
2	0xbdd20d98	-0.10256499
3	0x422d466a	43.318764
4	0xc3a0d7a4	-321.6847
5	0xc6201820	-10246.031
6	0x3bc8ffe0	0.0061340183
7	0xba0bb78b	-0.0005329779
8	0xba24ec92	-0.0006291355
9	0x3e880c34	0.2657181
10	0xbffc9277	-1.9732198
11	0xc27b65ba	-62.849342
12	0x381dd0ce	3.762618e-05
13	0xb65b6616	-3.2692965e-06
14	0xb6817daa	-3.859129e-06
15	0x3ad5a307	0.0016299196
16	0xbc464ee0	-0.012103766
17	0xbec562c0	-0.38551903
18	0x3477d1bc	2.3079969e-07
19	0xb2ac430c	-2.0053925e-08
20	0xb2cb5735	-2.3671967e-08
21	0x3727bce6	9.997957e-06
22	0xb89bb3d5	-7.424472e-05
23	0xbb1afa70	-0.0023647808
24	0x30c2938e	1.4157295e-09
25	0xaf07408f	-1.2301114e-10
26	0xaf1fa760	-1.4520429e-10
27	0x3383b33c	6.1327654e-08
28	0xb4f4803f	-4.5541853e-07
29	0xb7735d1e	-1.4505609e-05
30	0x2d18c5c2	8.684111e-12
31	0xab54633e	-7.5455256e-13
32	0xab7ab4ac	-8.9068575e-13
33	0x2fcecf53	3.7618494e-10
34	0xb13ff892	-2.7935454e-09
35	0xb3bf13fe	-8.897767e-08
36	0x3f800000	1.0
37	0xc0650ce4	-3.5789118
38	0x42b06058	88.18817
39	0xc4a47f64	-1315.981
40	0x45b1347c	5670.5605
41	0x499eae9f	1.2999239e+06
42	0x3e40243e	0.18763825
43	0xbf2bea18	-0.67154074
44	0x4184613a	16.547474
45	0xc376edaa	-246.92838
46	0x44850073	1064.014
47	0x486e32dc	243915.44
48	0x3d103662	0.035208113
49	0xbe0107e9	-0.12600674
50	0x4046b753	3.1049392
51	0xc2395534	-46.333206
52	0x4347a655	199.64973
53	0x4732c7de	45767.867
54	0x3bd87a68	0.006606389
55	0xbcc1b066	-0.023643684
56	0x3f1525a0	0.58260536
57	0xc10b1a24	-8.693882
58	0x4215d904	37.46193
59	0x46062f36	8587.803
60	0x3aa27a74	0.0012396113
61	0xbb915fb8	-0.0044364594
62	0x3ddfe2ab	0.10931905
63	0xbfd0ce99	-1.6313049
64	0x40e0eff4	7.029291
65	0x44c96ccf	1611.4003
66	0x3973e5af	0.0002325985
67	0xba5a38be	-0.0008324495
68	0x3ca809b2	0.020512436
69	0xbe9cb882	-0.30609518
70	0x3fa8d3cf	1.3189639
71	0x43972e20	302.36035
72	0x3f800000	1.0
73	0x3d64b6f8	0.055838555
74	0xbf491adc	-0.7855661
75	0xc1833670	-16.40158
76	0x44620290	904.04004
77	0xc6c779cc	-25532.898
78	0xbc04f090	-0.008113995
79	0xb9ed8a88	-0.00045307376
80	0x3bd0dda7	0.0063740793
81	0x3e0846bd	0.13308235
82	0xc0eabb68	-7.3353767
83	0x434f2c7f	207.17381
84	0x388a11ed	6.583692e-05
85	0x3676b54b	3.6762383e-06
86	0xb858ed1f	-5.171925e-05
87	0xba8d8911	-0.0010798295
88	0x3d73ca6a	0.05951921
89	0xbfd72b3f	-1.6810073
90	0xb50f65f9	-5.342004e-07
91	0xb3001d4f	-2.982898e-08
92	0x34e14c38	4.1964972e-07
93	0x3712ff59	8.761731e-06
94	0xb9fd32eb	-0.00048293857
95	0x3c5f78fc	0.013639685
96	0x3194eeaa	4.3345e-09
97	0x2f850f01	2.420322e-10
98	0xb169fe07	-3.405036e-09
99	0xb398ab99	-7.109265e-08
100	0x36837c30	3.9185616e-06
101	0xb8e818c3	-0.00011067234
102	0xae1aae06	-3.517011e-11
103	0xac0a318b	-1.9638481e-12
104	0x2df305bb	2.7628446e-11
105	0x301e8fe3	5.768454e-10
106	0xb3088f2e	-3.179519e-08
107	0x35710dbc	8.979948e-07
108	0x3f800000	1.0
109	0x3bec2e00	0.007207632
110	0x3f85a99a	1.0442383
111	0x41d9d7a4	27.230293
112	0xc3ba82e0	-373.02246
113	0xc71d1bb8	-40219.72
114	0xbc339250	-0.010960177
115	0xb8a5ab26	-7.899692e-05
116	0xbc3b83f6	-0.011445036
117	0xbe98ce49	-0.29844883
118	0x4082d41c	4.0883923
119	0x43dc6859	440.81522
120	0x38fbebdf	0.00012012547
121	0x35686ab6	8.658202e-07
122	0x39038871	0.00012543962
123	0x3b565f25	0.003271052
124	0xbd378a2a	-0.044809498
125	0xc09a9aef	-4.831413
126	0xb5b0b5e8	-1.3165964e-06
127	0xb2230773	-9.4895425e-09
128	0xb5b88728	-1.3748404e-06
129	0xb8165f0c	-3.5851306e-05
130	0x3a00be82	0.00049112004
131	0x3d58e563	0.052953135
132	0x3277e861	1.4430129e-08
133	0x2ee4b6c5	1.0400706e-10
134	0x32816ff8	1.5068494e-08
135	0x34d2f4cd	3.9293664e-07
136	0xb6b49d93	-5.382762e-06
137	0xba18245b	-0.0005803757
138	0xaf2de52c	-1.5815677e-10
139	0xaba06e84	-1.1399358e-12
140	0xaf35968a	-1.6515336e-10
141	0xb193f9bd	-4.306655e-09
142	0x337d62d1	5.8996026e-08
143	0x36d570c0	6.3610205e-06
144	0x3f800000	1.0
145	0xbd576a17	-0.05259141
146	0xbfcf58d6	-1.6198986
147	0x41a55151	20.664705
148	0x4495321a	1193.5657
149	0xc6bd10e8	-24200.453
150	0x3b58a4c0	0.0033057183
151	0xb9364c25	-0.00017385239
152	0xbbaf7865	-0.0053549283
153	0x3d8be700	0.06831169
154	0x407c8494	3.945592
155	0xc29ffff0	-79.99988
156	0x3737566e	1.09277735e-05
157	0xb51a4591	-5.7470703e-07
158	0xb7947e82	-1.7701885e-05
159	0x396cc9e3	0.00022581923
160	0x3c55b25f	0.013043015
161	0xbe8766eb	-0.26445708
162	0x331b26ea	3.6124142e-08
163	0xb1028dfb	-1.8998196e-09
164	0xb37b549d	-5.8517447e-08
165	0x354862ba	7.464947e-07
166	0x3834d807	4.3116535e-05
167	0xba652bf4	-0.0008742206
168	0x2f034cae	1.1941623e-10
169	0xacdcf79f	-6.2802675e-12
170	0xaf54b122	-1.9344218e-10
171	0x31299442	2.4677012e-09
172	0x34190aa7	1.425311e-07
173	0xb641f090	-2.8899267e-06
174	0x2ade3a65	3.947564e-13
175	0xa8baff23	-2.0760796e-14
176	0xab33fe56	-6.3946537e-13
177	0x2d0f823a	8.157525e-12
178	0x3001837b	4.711677e-10
179	0xb2241fca	-9.553284e-09
180	0x3f800000	1.0
181	0xbfc88efe	-1.5668638
182	0xc2097d53	-34.372387
183	0x444cffcb	819.99677
184	0x45dbf662	7038.798
185	0xc95a6b1c	-894641.75
186	0x3eb5aab9	0.35481814
187	0xbf0e52d9	-0.55595165
188	0xc1432299	-12.195947
189	0x43917991	290.94974
190	0x451c17e4	2497.4932
191	0xc89aff64	-317435.12
192	0x3e00eadb	0.1258959
193	0xbe49fefb	-0.19726174
194	0xc08a7997	-4.3273425
195	0x42ce77ed	103.23423
196	0x445d89f9	886.1558
197	0xc7dbfbde	-112631.734
198	0x3d36f80c	0.04467015
199	0xbd8f57fd	-0.06999204
200	0xbfc488a2	-1.5354197
201	0x4212847c	36.62938
202	0x439d364b	314.42416
203	0xc71c1bc8	-39963.78
204	0x3c81d765	0.015849778
205	0xbccb719a	-0.024834443
206	0xbf0b77ab	-0.54479474
207	0x414ff2c2	12.996767
208	0x42df2074	111.563385
209	0xc65d8f7e	-14179.873
210	0x3bb847c3	0.005623789
211	0xbc105eff	-0.008811711
212	0xbe45f13c	-0.19330305
213	0x40939151	4.611489
214	0x421e56bf	39.584713
215	0xc59d3a36	-5031.2764
216	0x3f800000	1.0
217	0x3f195b16	0.5990461
218	0x4195af31	18.710543
219	0xc23b1095	-46.766193
220	0x45758f0e	3928.941
221	0xc7dbc7dd	-112527.73
222	0x3d853eb8	0.06506103
223	0x3d1fa3c9	0.038974557
224	0x3f9bd161	1.2173272
225	0xc042bae4	-3.042657
226	0x437f9ef7	255.62096
227	0xc5e4c95c	-7321.17
228	0x3b8ab475	0.004232938
229	0x3b262e68	0.002535725
230	0x3da233e8	0.079200566
231	0xbe4ab59b	-0.1979584
232	0x41850c36	16.630962
233	0xc3ee2954	-476.32288
234	0x39906378	0.0002753993
235	0x392cfda5	0.00016497688
236	0x3ba8d969	0.0051528704
237	0xbc530406	-0.012879377
238	0x3f8a7fe1	1.0820276
239	0xc1f7eba3	-30.990057
240	0x37964e1b	1.7917764e-05
241	0x37341452	1.0733567e-05
242	0x39afc4a4	0.0003352511
243	0xba5ba994	-0.0008379456
244	0x3d902cbe	0.07039784
245	0xc0010a2a	-2.0162454
246	0x359c76ce	1.1657482e-06
247	0x353b755a	6.98337e-07
248	0x37b6f872	2.1811782e-05
249	0xb864a9d6	-5.4517608e-05
250	0x3b961522	0.004580156
251	0xbe0653ca	-0.131179
252	0x3f800000	1.0
253	0xbefff0c7	-0.49988386
254	0x40d20eea	6.5643206
255	0xc249962c	-50.396652
