deep_learning_based/logs/xBurgers40/theta_FIN.npy (npy, 230528 bytes, 1 tensors)

array f4 [1, 1600, 36]
00000000: 0000 803f 8567 57be 7680 a2c0 25e5 aec1
00000010: 20bf 3bc3 ec43 ec46 fcc1 a43c 8aa1 8abb
00000020: dd2a d1bd a51e e1be 69a9 71c0 8b0e 1844
00000030: 3c12 d439 1271 b2b8 f59d 06bb 38e2 10bc
00000040: a687 9bbd 14b9 4341 617c 0837 4daf e5b5
00000050: 6546 2db8 6a7d 3ab9 8131 c8ba c0ed 7b3e
00000060: 35ae 2f34 59d2 13b3 cb08 5fb5 500b 70b6
00000070: 6ad7 00b8 3523 a23b 7221 6231 8845 3eb0
00000080: a38a 8fb2 247d 9ab3 41d7 25b5 d4b2 d038
00000090: 0000 803f 26c5 d43e a819 2340 b0a5 0141
000000a0: 80da e742 805e b1c6 cabd 5d3d ef4b b83c
000000b0: 1146 0d3e 4d98 e03e 84d3 c840 13a2 99c4
000000c0: 3b11 403b 2fa2 9f3a 71bc f43b fc89 c23c
000000d0: 7bf3 ad3e d012 85c2 445d 2639 5b45 8a38
000000e0: 1dfc d339 5881 a83a 27ac 963c cb87 66c0
000000f0: da19 1037 c488 6f36 ce9d b737 95f4 9138
00000100: 5282 823a 23ae 47be 4ca2 f934 a67a 4f34
00000110: 5b0b 9f35 b3d8 7c36 8416 6238 5df5 2cbc
00000120: 0000 803f 433a 353e 7274 dabf 605c 5542
00000130: 4054 acc4 c0f7 9847 606a cf3b 6ad5 923a
00000140: eefe 30bc 5ade ac3e bb9f 0bc1 c8df f743
00000150: 330d 2838 28ef ed36 ae67 8fb8 9f0f 0c3b
00000160: 5940 62bd f2d4 4840 8128 8834 40c7 4033
00000170: da60 e8b4 aaf5 6237 0c50 b7b9 a4b7 a23c
00000180: a7a2 dc30 3731 9c2f de46 3cb1 f2e2 b733
00000190: e585 14b6 1ad6 0339 33c3 322d 6419 fd2b
000001a0: 898b 98ad ebfc 1430 f6ab 70b2 cda1 5535
000001b0: 0000 803f 4ef8 823e 20bf 543e 80c2 973f
000001c0: c8f5 9543 e06b d2c4 4054 aa3d fc47 ae3c
000001d0: ef8c 8d3c 36f2 c93d 228d c741 e300 0cc3
000001e0: 01a8 e23b 51ea e73a 595c bc3a 4d5d 063c
000001f0: 64c5 0440 534d 3ac1 28ce 163a ec4d 1a39
00000200: a0a6 fa38 5acc 323a 8dad 303e 52e9 77bf
00000210: 10ad 4838 0e55 4d37 23c5 2637 18ed 6d38
00000220: c91a 6b3c 87f2 a4bd f884 8536 0f9e 8835
00000230: 99eb 5d35 c04d 9e36 2a6d 9c3a ae7e dbbb
00000240: 0000 803f e64b b5be a372 aa40 27e5 bec2
00000250: de38 0944 d846 bf47 a864 b13c 8541 fbbb
00000260: 8f38 ec3d 7f47 04c0 8c2c 3e41 318b 0445
00000270: b0d8 f539 181b 2eb9 fcaf 233b e352 37bd
00000280: 93c7 833e b4b0 3742 7c5b 2a37 614a 71b6
00000290: 13da 6238 c810 7eba 9aa1 b63b cd92 7e3f
000002a0: 7818 6c34 4c33 a7b3 f931 9d35 7f0d b0b7
000002b0: 151b fd38 9767 b03c bf99 a331 6ab8 e7b0
000002c0: b7da d932 1afd f3b4 3d63 2f36 f779 f439
000002d0: 0000 803f e6ec d53f 21c1 7241 5991 6143
000002e0: cbd0 d9c5 ce57 4bc8 fe7c 943e d02a f83e
000002f0: 2dce 8c40 2ad6 8242 1dae fcc4 17e4 6bc7
00000300: 8541 ac3d ebf1 0f3e e357 a33f 63c7 9741
00000310: 0890 12c4 09d3 88c6 f7d3 c73c 47fc 263d
00000320: 207d bd3e c112 b040 a705 2ac3 9fb9 9ec5
00000330: 37d0 e73b c2b6 413c b6d1 db3d 9e41 cc3f
00000340: 903c 45c2 9e21 b8c4 8f75 063b 7ab8 603b
00000350: 2201 ff3c 54f3 ec3e a1ce 64c1 ad9a d5c3
00000360: 0000 803f 7262 173f b864 5e40 4c44 a1c0
00000370: a0eb a4c2 7469 1747 b29c 8f3d 4ed9 293d
00000380: c684 793e b8ef b4be 2109 b9c0 2be1 2945
00000390: de20 a13b b390 3e3b e5f9 8b3c 5001 cbbc
000003a0: b89a cfbe 8599 3e43 f8c7 b439 f1ce 5539
000003b0: 890c 9d3a fcc3 e3ba ffec e8bc d6d8 5541
000003c0: b7d4 ca37 efe2 6f37 4434 b038 c88b ffb8
000003d0: f5aa 02bb 0aee 6f3f f291 e335 9992 8635
000003e0: 18b2 c536 805b 0fb7 f49a 12b9 d498 863d
000003f0: 0000 803f 2795 26bf 1557 04c1 0036 69c0
1.0 -0.21035583 -5.0781813 -21.861887 -187.74658 30241.96 0.02011203 -0.0042306827
-0.10213254 -0.43968692 -3.775965 608.22723 0.00040449377 -8.5087624e-05 -0.0020540927 -0.008842997
-0.07594232 12.232685 8.135191e-06 -1.7112849e-06 -4.1311974e-05 -0.00017785063 -0.0015273542 0.24602413
1.6361521e-07 -3.4417415e-08 -8.308677e-07 -3.5769372e-06 -3.0718198e-05 0.0049480447 3.290634e-09 -6.9220407e-10
-1.6710436e-08 -7.193947e-08 -6.1780526e-07 9.951522e-05 1.0 0.41556662 2.548441 8.102951
115.92676 -22703.25 0.054136075 0.022497145 0.1379626 0.43866196 6.27582 -1229.0648
0.0029307145 0.0012179072 0.007468753 0.023747437 0.33974823 -66.53674 0.00015865738 6.593271e-05
0.00040432895 0.001285593 0.018392636 -3.6020381 8.589088e-06 3.5693383e-06 2.1888784e-05 6.959696e-05
0.0009957051 -0.19500022 4.649795e-07 1.9322997e-07 1.1849728e-06 3.7677062e-06 5.390357e-05 -0.010556546
1.0 0.17698006 -1.7066786 53.34021 -1378.6328 78319.5 0.0063298196 0.0011202518
-0.0108029675 0.3376339 -8.726497 495.7483 4.0066614e-05 7.090992e-06 -6.838083e-05 0.0021371616
-0.055237148 3.1379972 2.5361445e-07 4.48847e-08 -4.3283836e-07 1.3527848e-05 -0.0003496412 0.019862957
1.6053335e-09 2.8411204e-10 -2.7397884e-09 8.562883e-08 -2.2131655e-06 0.00012572893 1.01614715e-11 1.7983779e-12
-1.7342365e-11 5.4201504e-10 -1.4008938e-08 7.9584134e-07 1.0 0.25580066 0.20776033 1.1856232
299.92017 -1683.3711 0.08316851 0.02127456 0.017279116 0.09860651 24.943913 -140.00346
0.0069170003 0.0017693733 0.0014370783 0.008200956 2.0745478 -11.643878 0.00057527656 0.00014715613
0.00011951965 0.0006820612 0.17253704 -0.96840394 4.7844893e-05 1.22387555e-05 9.9402705e-06 5.6726014e-05
0.014349648 -0.08054071 3.9791885e-06 1.0178791e-06 8.2671755e-07 4.7178182e-06 0.0011934389 -0.006698451
1.0 -0.35409468 5.3264937 -95.44756 548.88855 97933.69 0.021654442 -0.0076677226
0.11534225 -2.0668638 11.885876 2120.6995 0.00046891486 -0.00016604026 0.002497672 -0.04475678
0.257382 45.92256 1.015409e-05 -3.5955093e-06 5.4085696e-05 -0.00096918317 0.0055734636 0.9944275
2.1988114e-07 -7.785874e-08 1.1711955e-06 -2.098712e-05 0.000120690245 0.02153377 4.7614033e-09 -1.6859876e-09
2.5361585e-08 -4.5446433e-07 2.6134796e-06 0.00046630178 1.0 1.6712921 15.172151 225.56776
-6970.099 -208223.22 0.2900161 0.48470163 4.400168 65.41829 -2021.441 -60388.09
0.08410934 0.14057128 1.2761196 18.972357 -586.2505 -17513.518 0.024393065 0.040767934
0.37009525 5.5022893 -170.02208 -5079.2026 0.0070743817 0.011823358 0.107333586 1.5957525
-49.309143 -1473.0505 0.0020516848 0.0034289644 0.03112847 0.46279395 -14.3004465 -427.2084
1.0 0.5913459 3.4748974 -5.039587 -82.460205 38761.453 0.07012309 0.041467004
0.24367055 -0.3533914 -5.7823644 2718.073 0.004917248 0.0029077947 0.017086932 -0.0247809
-0.4054773 190.59969 0.00034481264 0.00020390355 0.0011981885 -0.0017377133 -0.028433321 13.365438
2.417933e-05 1.4298347e-05 8.402069e-05 -0.00012185384 -0.0019938324 0.93722594 1.6955294e-06 1.0026444e-06
5.8917904e-06 -8.544768e-06 -0.0001398137 0.065721184 1.0 -0.6507134 -8.27126 -3.643921
