deep_learning_based/logs/oldKS50/theta_FIN.npy (npy, 230528 bytes, 1 tensors)

array f4 [1, 1600, 36]
1.0 15.7704315 2677.0435 -393960.06 2.595909e+06 8.1249403e+09 -0.42251787 -6.663289
-1131.0986 166455.17 -1.0968179e+06 -3.4329324e+09 0.17852135 2.8153586 477.90942 -70330.28
463425.2 1.4504753e+09 -0.07542846 -1.1895394 -201.92528 29715.803 -195805.42 -6.128518e+08
0.031869873 0.5026017 85.31704 -12555.457 82731.29 2.5894082e+08 -0.013465591 -0.21235818
-36.04797 5304.905 -34955.45 -1.0940712e+08 1.0 -32.47332 -2655.725 288465.44
5.2297812e+07 -3.9888645e+09 0.4430433 -14.387087 -1176.6012 127802.68 2.3170194e+07 -1.7672397e+09
0.19628736 -6.3741026 -521.2853 56622.12 1.02654e+07 -7.829637e+08 0.0869638 -2.8240035
-230.95195 25086.05 4.5480165e+06 -3.4688682e+08 0.03852873 -1.2511557 -102.32172 11114.207
2.0149682e+06 -1.5368589e+08 0.017069895 -0.55431616 -45.332947 4924.0747 892718.1 -6.8089496e+07
1.0 -9.255515 3838.7314 -168554.3 -5.094995e+07 8.012606e+09 -0.2493478 2.3078425
-957.17926 42028.645 1.2704259e+07 -1.9979258e+09 0.062174328 -0.5754554 238.67055 -10479.75
-3.167779e+06 4.981784e+08 -0.015503032 0.14348854 -59.51198 2613.1028 789878.75 -1.2421969e+08
0.0038656471 -0.035778556 14.839181 -651.5714 -196954.53 3.0973908e+07 -0.00096389063 0.008921305
-3.7001173 162.46791 49110.18 -7.723276e+06 1.0 1.5424665 1102.0381 69591.84
-8.1182505e+06 -8.780934e+07 -0.14049502 -0.21670885 -154.83086 -9777.308 1.1405738e+06 1.2336775e+07
0.01973885 0.030446514 21.752964 1373.663 -160244.92 -1.7332554e+06 -0.00277321 -0.0042775837
-3.0561829 -192.9928 22513.613 243513.75 0.00038962218 0.00060097914 0.42937848 27.114525
-3163.0505 -34212.47 -5.4739976e-05 -8.443458e-05 -0.060325537 -3.8094559 444.39282 4806.681
1.0 15.307979 -1401.1365 -13296.907 9.446124e+06 -5.828815e+08 0.04785666 0.7325887
-67.05371 -636.3456 452059.94 -2.789476e+07 0.0022902598 0.035059247 -3.2089665 -30.453373
21634.078 -1.33495e+06 0.00010960418 0.0016778185 -0.15357041 -1.4573966 1035.3347 -63886.246
5.24529e-06 8.029479e-05 -0.0073493673 -0.06974614 49.54766 -3057.3823 2.5102207e-07 3.8426406e-06
-0.00035171618 -0.0033378173 2.3711855 -146.31612 1.0 -2.843911 -409.41348 115997.35
4.1846068e+06 -8.041291e+08 0.12139768 -0.3452442 -49.701847 14081.81 508001.56 -9.761941e+07
0.014737397 -0.041911844 -6.033689 1709.499 61670.21 -1.185077e+07 0.0017890859 -0.005088001
-0.7324759 207.52922 7486.621 -1.438656e+06 0.00021719089 -0.0006176715 -0.08892088 25.193567
908.85846 -174649.52 2.636647e-05 -7.4983895e-05 -0.010794789 3.0584407 110.333305 -21202.045
1.0 11.480926 1131.7131 -74014.88 5.155152e+06 1.0830863e+09 -0.41016996 -4.709131
-464.19473 30358.682 -2.1144885e+06 -4.4424947e+08 0.1682394 1.9315441 190.39874 -12452.22
867299.7 1.822178e+08 -0.06900675 -0.79226136 -78.09584 5107.5264 -355740.28 -7.4740264e+07
0.028304495 0.3249618 32.03257 -2094.9539 145913.97 3.0656212e+07 -0.011609654 -0.13328958
-13.138798 859.2872 -59849.53 -1.2574258e+07 1.0 -44.57071 -3966.5552 494573.7
00000000: 0000 803f b053 7c41 b250 2745 025d c0c8
00000010: 1471 1e4a 6024 f24f 4354 d8be aa39 d5c0
00000020: 2863 8dc4 cb8d 2248 8fe3 85c9 649e 4ccf
00000030: 4dce 363e d62e 3440 68f4 ee43 245d 89c7
00000040: 2648 e248 fee8 ac4e 3d7a 9abd d442 98bf
00000050: dfec 49c3 9b27 e846 5b37 3fc8 811d 12ce
00000060: fc89 023d 81aa 003f 53a2 aa42 d42d 44c6
00000070: a595 a147 f9f1 764d c89e 5cbc 6c74 59be
00000080: 1f31 10c2 3dc7 a545 738b 08c7 72ad d0cc
00000090: 0000 803f aee4 01c2 9afb 25c5 2eda 8c48
000000a0: 1580 474c 3ec1 6dcf 92d6 e23e 8231 66c1
000000b0: 3d13 93c4 579d f947 49c6 b04b e0ab d2ce
000000c0: 8eff 483e a6f8 cbc0 4252 02c4 1f2e 5d47
000000d0: 38a3 1c4b 50ac 3ace 141a b23d 79bc 34c0
000000e0: b3f3 66c3 1afc c346 61cb 8a4a 9568 a5cd
000000f0: 4dd0 1d3d df25 a0bf b8a4 ccc2 d4a8 2d46
00000100: c2f7 f549 f890 12cd 2ad6 8b3c aae7 0dbf
00000110: f054 35c2 99e0 9945 e2f2 5949 d3de 81cc
00000120: 0000 803f 9716 14c1 b4eb 6f45 939a 24c8
00000130: d05b 42cc 55cb ee4f 0855 7fbe b1b3 1340
00000140: 794b 6fc4 a52c 2447 03da 414b db2b eece
00000150: 82aa 7e3d 0c51 13bf a9ab 6e43 00bf 23c6
00000160: 8c58 41ca cb8c ed4d 6e00 7ebc a9ee 123e
00000170: 440c 6ec2 a551 2345 6cd7 4049 25ee eccc
00000180: cc56 7d3b 898c 12bd 496d 6d41 92e4 22c4
00000190: a256 40c8 ea4f ec4b 9bad 7cba aa2a 123c
000001a0: b9ce 6cc0 c977 2243 2ed6 3f47 18b2 ebca
000001b0: 0000 803f 8b6f c53f 38c1 8944 eceb 8747
000001c0: d5bf f7ca a87b a7cc eddd 0fbe ede8 5dbe
000001d0: b3d4 1ac3 3bc5 18c6 ee3a 8b49 873e 3c4b
000001e0: 5eb3 a13c f86a f93c 1206 ae41 37b5 ab44
000001f0: 3b7d 1cc8 3b94 d3c9 bebe 35bb f92a 8cbb
00000200: 8098 43c0 28fe 40c3 3ae3 af46 70ce 6d48
00000210: 3446 cc39 078b 1d3a 7fd7 db3e 8cea d841
00000220: cfb0 45c5 78a4 05c7 9a98 65b8 7812 b1b8
00000230: e917 77bd 20ce 73c0 4832 de43 7335 9645
00000240: 0000 803f 7bed 7441 5e24 afc4 a1c3 4fc6
00000250: ec22 104b 43f8 0ace 5805 443d ef8a 3b3f
00000260: 801b 86c2 1e16 1fc4 7ebb dc48 f4d1 d4cb
00000270: 2f18 163b 499a 0f3d b55f 4dc0 82a0 f3c1
00000280: 2804 a946 30f5 a2c9 4cdb e538 3fea db3a
00000290: 9041 1dbe f98b babf b66a 8144 3f8e 79c7
000002a0: b300 b036 f063 a838 f6d2 f0bb 10d7 8ebd
000002b0: ce30 4642 1e16 3fc5 36c4 8634 08f0 8036
000002c0: 8c66 b8b9 48bf 5abb 81c1 1740 ed50 12c3
000002d0: 0000 803f a302 36c0 edb4 ccc3 ad8e e247
000002e0: 7b68 7f4a 25b8 3fce 599f f83d d9c3 b0be
000002f0: b1ce 46c2 3d07 5c46 320c f848 ba31 bacc
00000300: 2075 713c c1ab 2bbd fb13 c1c0 f8af d544
00000310: 36e6 7047 12d4 34cb c37f ea3a 3fb9 a6bb
00000320: 8a83 3bbf 7b87 4f43 f8f4 e945 009e afc9
00000330: bcbd 6339 3ceb 21ba 261c b6bd 6d8c c941
00000340: f136 6344 618e 2ac8 902d dd37 ac40 9db8
00000350: a0dc 30bc 7ebd 4340 a7aa dc42 17a4 a5c6
00000360: 0000 803f dfb1 3741 d276 8d44 718f 90c7
00000370: a052 9d4a 2c1d 814e cc01 d2be 33b1 96c0
00000380: ed18 e8c3 5d2d ed46 e20e 01ca acd5 d3cd
00000390: f346 2c3e d63c f73f 1466 3e43 e190 42c6
000003a0: 3bbe 5349 c4c6 2d4d 6953 8dbd a4d1 4abf
000003b0: 1231 9cc2 369c 9f45 89b3 adc8 458e 8ecc
000003c0: d4de e73c 6561 a63e 5a21 0042 43ef 02c5
000003d0: 7e7e 0e48 6ae3 e94b 6b36 3ebc 107d 08be
000003e0: 8438 52c1 61d2 5644 88c9 69c7 32de 3fcb
000003f0: 0000 803f 6848 32c2 e2e8 77c5 b67d f148
