deep_learning_based/logs/oldKS50/theta_IN.npy (npy, 230528 bytes, 1 tensors)

array f4 [1, 1600, 36]
000000 00 00 80 3f 58 7c 89 41 9c 26 22 45 5e 05 cb c8
       1.0 17.185715 2594.413 -415786.94
000010 a7 5f 86 4a 44 3c ff 4f e2 16 d2 be 94 a8 e1 c0
       4.4031555e+06 8.5642793e+09 -0.41033083 -7.0518284
000020 2a 12 85 c4 8d 9c 26 48 f4 8c dc c9 40 76 51 cf
       -1064.5676 170610.2 -1.8067505e+06 -3.5141878e+09
000030 8d 69 2c 3e 76 30 39 40 98 69 da 43 50 bb 88 c7
       0.1683714 2.8935828 436.82495 -70006.625
000040 57 ff 34 49 ba e5 ab 4e ff 7d 8d bd 4e fa 97 bf
       741365.44 1.4419796e+09 -0.069087975 -1.1873262
000050 25 3e 33 c3 c1 6b e0 46 a3 89 94 c8 d0 11 0d ce
       -179.24275 28725.877 -304205.1 -5.916887e+08
000060 02 3c e8 3c d4 71 f9 3e 00 19 93 42 74 2c 38 c6
       0.028348926 0.48719656 73.54883 -11787.113
000070 5e cc f3 47 72 8a 67 4d fc 95 3e bc ac b5 4c be
       124824.734 2.4278813e+08 -0.011632439 -0.19991177
000080 50 6f f1 c1 ee 24 97 45 70 13 48 c7 44 04 be cc
       -30.179352 4836.616 -51219.438 -9.962346e+07
000090 00 00 80 3f 08 ef 04 c2 92 96 27 c5 c3 91 a0 48
       1.0 -33.23343 -2681.4106 328846.1
0000a0 be 93 51 4c 68 8d b0 cf 62 b7 e3 3e 5c 7e 6c c1
       5.4939384e+07 -5.9241144e+09 0.44475847 -14.780849
0000b0 90 12 95 c4 46 d4 0e 48 22 6c ba 4b dc 0b 1d cf
       -1192.5801 146257.1 2.4434756e+07 -2.6348e+09
0000c0 bb 8e 4a 3e 74 5d d2 c0 3f 9a 04 c4 14 19 7e 47
       0.1978101 -6.573908 -530.4101 65049.08
0000d0 6d d3 25 4b 03 b2 8b ce a9 2d b4 3d 8f 1f 3b c0
       1.0867565e+07 -1.1718496e+09 0.087977715 -2.9238012
0000e0 86 e7 6b c3 41 06 e2 46 43 81 93 4a d5 85 f8 cd
       -235.90439 28931.127 4.8334415e+06 -5.2119005e+08
0000f0 8f 45 20 3d 07 73 a6 bf 49 d7 d1 c2 76 0d 49 46
       0.039128836 -1.3003854 -104.92048 12867.365
000100 49 35 03 4a b3 10 5d cd 7d 90 8e 3c 3c 0f 14 bf
       2.1497142e+06 -2.318037e+08 0.017402882 -0.57835746
000110 37 a8 3a c2 f5 d6 b2 45 7a 6c 69 49 2b a4 c4 cc
       -46.664272 5722.8696 956103.6 -1.03096664e+08
000120 00 00 80 3f b5 35 fd c0 f6 8e 61 45 8c da 3c c8
       1.0 -7.912806 3608.935 -193386.19
000130 66 5e 2a cc 08 a8 f4 4f b8 94 70 be 73 f5 ed 3f
       -4.4661144e+07 8.2093056e+09 -0.23494232 1.859053
000140 0f f9 53 c4 99 7a 31 47 79 1b 20 4b a8 eb e5 ce
       -847.89154 45434.598 1.0492793e+07 -1.9287132e+09
000150 2f 17 62 3d 58 a0 df be a2 34 47 43 0a ca 26 c6
       0.05519789 -0.4367702 199.2056 -10674.51
000160 c4 76 16 ca 7f 12 d8 4d 14 79 54 bc 3c 28 d2 3d
       -2.465201e+06 4.5313635e+08 -0.01296832 0.1026158
000170 12 35 3b c2 4e be 1c 45 c0 66 0d 49 dd 0e cb cc
       -46.801826 2507.894 579180.0 -1.06460904e+08
000180 f1 ac 47 3b ce 7f c5 bc 82 ee 2f 41 77 4d 13 c4
       0.0030468071 -0.024108794 10.995729 -589.2104
000190 79 e2 04 c8 e5 d3 be 4b 21 a6 3b ba 8d 9a b9 3b
       -136073.89 2.501217e+07 -0.0007158239 0.005664176
0001a0 cd 55 25 c0 32 6e 0a 43 07 c3 f9 46 82 55 b3 ca
       -2.5833619 138.43045 31969.514 -5.876417e+06
0001b0 00 00 80 3f 46 77 dc 3f c4 6a 86 44 f5 e7 80 47
       1.0 1.7223899 1075.3364 65999.914
0001c0 66 fc ea ca 18 6c 9b cc 1a d6 0e be 16 05 76 be
       -7.700019e+06 -8.148602e+07 -0.13948861 -0.24025378
0001d0 47 ff 15 c3 f2 d8 0f c6 87 1c 83 49 e3 6f 2d 4b
       -149.99718 -9206.236 1.0740649e+06 1.1366371e+07
0001e0 70 64 9f 3c 94 44 09 3d 18 62 a7 41 48 85 a0 44
       0.019457072 0.033512667 20.922897 1284.165
0001f0 f5 4e 12 c8 3a 8a c1 c9 09 de 31 bb af 2d 99 bb
       -149819.83 -1.5854792e+06 -0.00271404 -0.0046746354
000200 ce c8 3a c0 5c 20 33 c3 52 44 a3 46 14 f9 57 48
       -2.9185061 -179.1264 20898.16 221156.31
000210 d5 7b c6 39 e5 ee 2a 3a 31 6f d0 3e 84 e3 c7 41
       0.00037857765 0.00065205834 0.40709832 24.986092
000220 e2 30 36 c5 92 01 f1 c6 60 7d 5d b8 f0 be be b8
       -2915.0552 -30848.785 -5.280727e-05 -9.095471e-05
000230 ff 97 68 bd c0 0e 5f c0 f9 4e cb 43 6f 78 86 45
       -0.05678558 -3.4852753 406.61697 4303.054
000240 00 00 80 3f 4d 1b 7a 41 30 a3 a9 c4 0e fa 48 c6
       1.0 15.631665 -1357.0996 -12862.514
000250 0c 35 07 4b a9 b8 29 ce 2d 98 5d 3d 3e 7e 58 3f
       8.86094e+06 -7.1186285e+08 0.054100204 0.8456763
000260 b7 d6 92 c2 56 f7 2d c4 55 12 ea 48 4d e9 12 cc
       -73.419365 -695.8646 479378.66 -3.8511924e+07
000270 18 d0 3f 3b ac 65 3b 3d 4b 35 7e c0 ee 95 16 c2
       0.002926832 0.04575126 -3.9720027 -37.646416
000280 f7 9c ca 46 78 55 fe c9 aa 08 26 39 2b 36 22 3b
       25934.482 -2.083503e+06 0.00015834221 0.0024751525
000290 1e 0b 5c be f2 58 02 c0 f2 61 af 44 f8 26 dc c7
       -0.21488616 -2.0366788 1403.0608 -112717.94
0002a0 2d b8 0f 37 30 69 0c 39 66 78 3e bc 8a a8 e1 bd
       8.566346e-06 0.00013390626 -0.011625385 -0.110184744
0002b0 cf cf 97 42 82 90 be c5 db ce f8 34 8b 14 f3 36
       75.905876 -6098.0635 4.6344107e-07 7.244356e-06
0002c0 29 df 24 ba a3 54 c3 bb a4 68 83 40 08 f4 a4 c3
       -0.0006289357 -0.005961017 4.1065235 -329.9065
0002d0 00 00 80 3f 12 c7 1d c0 38 a4 f4 c3 89 96 d2 47
       1.0 -2.4652753 -489.28296 107821.07
0002e0 39 fd 93 4a 74 c7 1d ce 20 e5 0f 3e d4 5e b1 be
       4.8493085e+06 -6.617736e+08 0.14052248 -0.3464266
0002f0 b1 82 89 c2 23 bd 6c 46 ce 5d 26 49 42 5f b1 cc
       -68.75526 15151.284 681436.9 -9.299406e+07
000300 8e c3 a1 3c 71 65 47 bd 28 96 1a c1 8a 11 05 45
       0.019746568 -0.048680726 -9.661659 2129.0962
000310 9a 06 bb 47 ed 65 47 cb 09 da 35 3b 42 28 e0 bb
       95757.2 -1.3067757e+07 0.0027748367 -0.0068407366
000320 78 c8 ad bf ca 97 95 43 28 40 52 46 cd 28 e0 c9
       -1.3576803 299.18585 13456.039 -1.8363136e+06
000330 1c 6f cc 39 3a fe 7b ba 0b 5d 43 be 5b 2b 28 42
       0.00038992695 -0.0009612773 -0.19078462 42.04234
000340 09 5c ec 44 d6 fe 7b c8 13 d2 65 38 8c a4 0d b9
       1890.8761 -258043.34 5.47935e-05 -0.00013508106
000350 a7 9f db bc 78 0d bd 40 f5 da 84 43 e4 a4 0d c7
       -0.026809527 5.907894 265.7106 -36260.89
000360 00 00 80 3f 5d 3c 48 41 62 64 7b 44 49 ce 95 c7
       1.0 12.514737 1005.5685 -76700.57
000370 1e 4b db 4a 8f f5 68 4e 70 f1 cc be f3 4c a0 c0
       7.185807e+06 9.7710176e+08 -0.40027952 -5.009393
000380 16 41 c9 c3 56 db ef 46 ae 8e 2f ca 63 7f ba cd
       -402.50848 30701.668 -2.8763315e+06 -3.9111382e+08
000390 ae 11 24 3e 80 54 00 40 ab 1d 21 43 ff 04 40 c6
       0.1602237 2.0051575 161.11589 -12289.249
0003a0 44 8b 8c 49 66 4d 15 4d d3 58 83 bd bb 78 4d bf
       1.1513365e+06 1.5655485e+08 -0.06413426 -0.80262345
0003b0 98 fb 80 c2 13 b9 99 45 0e 07 e1 c8 f9 0c 6f cc
       -64.491394 4919.1343 -460856.44 -6.26657e+07
0003c0 50 4d d2 3c fd 7d a4 3e 44 84 ce 41 eb 20 f6 c4
       0.025671631 0.3212737 25.814583 -1969.0287
0003d0 d9 25 34 48 ca 5f bf 4b f3 5b 28 bc 89 af 03 be
       184471.39 2.5083796e+07 -0.010275829 -0.1285993
0003e0 2c 54 25 c1 5d 0a 45 44 10 38 90 c7 d2 34 19 cb
       -10.33305 788.1619 -73840.125 -1.004053e+07
0003f0 00 00 80 3f b6 5d 39 c2 7e 33 79 c5 f6 a3 03 49
       1.0 -46.341515 -3987.2183 539199.4
