deep_learning_based/logs/oldNW20/theta_FIN.npy (npy, 230528 bytes, 1 tensors)

array f4 [1, 1600, 36]
00000000: 0000 803f 1cae b641 a252 09c4 ac5d abc7
00000010: 18c1 0ac9 6f42 c24e c53f d03e f89a 1441
00000020: b16a 5fc3 cc66 0bc7 e8be 61c8 5e06 1e4e
00000030: b067 293e dcc5 7140 57be b5c2 7ecc 62c6
00000040: 58a3 b7c7 8a8c 804d 72ce 893d fdac c43f
00000050: edd7 13c2 a57e b8c5 7662 15c7 6b24 d14c
00000060: 2134 e03c 8bfd 1f3f 8888 70c1 dc14 16c5
00000070: 6c0a 73c6 b021 2a4c 3462 363c dc25 823e
00000080: d9aa c3c0 aa2c 74c4 02b5 c5c5 c065 8a4b
00000090: 0000 803f 02c8 c840 0345 4543 76de d2c7
000000a0: a444 3aca a04e a44e 4897 12bf 6ff1 65c0
000000b0: deeb e1c2 f87e 7147 7152 d549 e02b 3cce
000000c0: cfe1 a73e 93ab 0340 065e 8142 1f49 0ac7
000000d0: 284e 74c9 7180 d74d fb43 40be 53cb 96bf
000000e0: 2528 14c2 d75e 9e46 f2e4 0b49 33cd 76cd
000000f0: c630 dc3d 23b2 2c3f e4ac a941 5a5f 35c6
00000100: 7a36 a0c8 df52 0d4d df2b 7cbd 4ac7 c5be
00000110: bd51 42c1 1fb7 cf45 7d7b 3748 8ed9 a1cc
00000120: 0000 803f 6400 fcc0 b0b3 de41 caba 0647
00000130: f00f bdca 0c0f 70ce cf99 d7be bc3b 5440
00000140: b68e 3bc1 a4ef 62c6 fa39 1f4a de2c ca4d
00000150: b693 353e aebd b2bf 8bf5 9d40 9c1f bf45
00000160: 5b19 86c9 2745 2acd 26ec 98bd b188 163f
00000170: 1f08 05c0 60f6 20c5 bbdf e148 6166 8f4c
00000180: 35ca 003d 7d8e 7dbe 8013 603f a18f 8744
00000190: 9b3a 3ec8 478a f1cb 67ee 58bc 028b d53d
000001a0: 01b7 bcbe 2556 e4c3 8335 a047 416c 4b4b
000001b0: 0000 803f 583d eabe ce20 9cc3 fee8 ffc6
000001c0: 433b 8649 96d2 9f4d a622 7dbf 549e e73e
000001d0: 8d61 9a43 e60b fd46 bcba 84c9 c008 9ecd
000001e0: 814d 7a3f d206 e5be 4ea7 98c3 0237 fac6
000001f0: 833e 8349 0944 9c4d 7980 77bf bd76 e23e
00000200: 01f2 9643 3b6a f746 8bc6 81c9 6484 9acd
00000210: 77bb 743f 00ee dfbe 9941 95c3 78a5 f4c6
00000220: c852 8049 c0c9 984d 64fe 71bf 846c dd3e
00000230: 0796 9343 a4e8 f146 5bc6 7dc9 1114 97cd
00000240: 0000 803f c6cc 9f41 6d92 e6c4 447d 65c8
00000250: 0a34 d94b e72a bd4f 1a39 a3bc 0ec6 cbbe
00000260: a902 1342 f251 9245 957c 0ac9 0639 f1cc
00000270: 8823 d039 8fec 013c f976 3bbf a195 bac2
00000280: 6e98 3046 1dcd 194a 0db5 04b7 34ad 25b9
00000290: 230d 6f3c c9ed ed3f e430 61c3 d01f 44c7
000002a0: c239 2934 7944 5336 af6a 98b9 79b3 17bd
000002b0: 5c94 8f40 0118 7a44 0bcb 57b1 b9b3 86b3
000002c0: da5b c236 3872 413a fa16 b7bd 1175 9fc1
000002d0: 0000 803f e4b8 9041 2254 7644 192e acc7
000002e0: 30be 45cb a26a ca4e 05ac b5be f167 cdc0
000002f0: 01cf aec3 9460 f446 5854 8c4a 68a5 0fce
00000300: b3ec 003e 83c4 1140 a61b f842 7f6c 2dc6
00000310: db2b c7c9 f2e0 4b4d f8fb 36bd c7e3 4ebf
00000320: 4312 30c2 7c24 7645 d757 0d49 0aaf 90cc
00000330: 1cdb 813c 12d2 923e 74e6 7941 32ad aec4
00000340: 2b9c 48c8 f659 cd4b 594e b8bb 5d62 d0bd
00000350: dc57 b1c0 a8eb f743 375d 8e47 97ba 11cb
00000360: 0000 803f c65a 01c0 c973 d443 04da 9247
00000370: 08fc 0dca 6a0e d6ce c213 29bf d1dd aa3f
00000380: d550 8cc3 84fa 41c7 ad8c bb49 0960 8d4e
00000390: 2f56 df3e 3db3 61bf 6258 3943 5a1d 0047
000003a0: afbc 77c9 9ebe 3ace 2281 93be bf10 153f
000003b0: 4ed3 f4c2 873a a9c6 af9e 2349 81ac f64d
000003c0: 43d7 423e 1ee7 c4be 63b2 a142 6589 5f46
000003d0: c420 d8c8 eaea a2cd 25af 00be c50b 823e
000003e0: 7d96 55c2 f5a2 13c6 50be 8e48 5033 574d
000003f0: 0000 803f f917 9540 cbc5 2543 600b 02c7
1.0 22.835014 -549.29114 -87739.34 -568337.5 1.6295668e+09 0.40673652 9.287834
-223.41676 -35686.797 -231163.62 6.6280435e+08 0.1654346 3.7777014 -90.87176 -14515.123
-94022.69 2.6958675e+08 0.067288294 1.5365292 -36.960865 -5903.8306 -38242.46 1.09650776e+08
0.027368607 0.6249625 -15.033333 -2401.3037 -15554.605 4.4598976e+07 0.011131812 0.2541951
-6.1146054 -976.6979 -6326.626 1.8140032e+07 1.0 6.274415 197.26958 -107964.92
-3.051817e+06 1.3783081e+09 -0.57262087 -3.592861 -112.96068 61822.97 1.7475341e+06 -7.89248e+08
0.32789466 2.057347 64.68364 -35401.12 -1.0006745e+06 4.5193987e+08 -0.18775932 -1.17808
-37.039204 20271.42 573007.1 -2.5879019e+08 0.1075149 0.67459315 21.20942 -11607.838
-328115.8 1.4818866e+08 -0.061565276 -0.38628608 -12.144956 6646.89 187885.95 -8.485592e+07
1.0 -7.8750477 27.837738 34490.79 -6.195192e+06 -1.0068795e+09 -0.42109534 3.316146
-11.722342 -14523.91 2.6087665e+06 4.2399226e+08 0.17732129 -1.3964136 4.9362235 6115.951
-1.0985394e+06 -1.7854117e+08 -0.07466917 0.58802325 -2.0786207 -2575.3984 462589.84 7.5182856e+07
0.03144284 -0.24761386 0.87529755 1084.4884 -194794.42 -3.165915e+07 -0.013240433 0.10426904
-0.3685837 -456.673 82027.02 1.3331521e+07 1.0 -0.45749927 -312.2563 -32756.496
1.0996244e+06 3.351723e+08 -0.98880994 0.45237982 308.76212 32389.95 -1.0873195e+06 -3.314217e+08
0.9777451 -0.44731766 -305.30707 -32027.504 1.0751524e+06 3.2771306e+08 -0.9668041 0.44231215
301.89066 31669.115 -1.0631214e+06 -3.2404595e+08 0.9559855 -0.43736267 -298.51248 -31314.734
1.051225e+06 3.2041984e+08 -0.94528794 0.43246853 295.1721 30964.32 -1.0394617e+06 -3.1683434e+08
1.0 19.974987 -1844.5758 -234997.06 2.8469268e+07 6.347411e+09 -0.01992469 -0.3979954
36.752598 4682.243 -567241.3 -1.2647019e+08 0.00039699324 0.007929935 -0.7322841 -93.292244
11302.107 2.5198792e+06 -7.909967e-06 -0.0001580015 0.014590534 1.8588191 -225.19098 -50207.812
1.5760364e-07 3.1481306e-06 -0.00029071185 -0.037036393 4.4868603 1000.37506 -3.1402034e-09 -6.2725526e-08
5.7923435e-06 0.00073793856 -0.08939929 -19.932161 1.0 18.090279 985.3146 -88156.195
-1.295928e+07 1.697993e+09 -0.35482803 -6.418938 -349.61722 31280.29 4.598316e+06 -6.024955e+08
0.12590294 2.2776191 124.054 -11099.124 -1.6316114e+06 2.137823e+08 -0.04467389 -0.8081631
-44.017834 3938.2803 578941.44 -7.585595e+07 0.01585155 0.28675896 15.618763 -1397.4124
-205424.67 2.691582e+07 -0.005624574 -0.10175011 -5.541975 495.84106 72890.43 -9.550487e+06
1.0 -2.0211654 424.90457 75188.03 -2.326274e+06 -1.7956344e+09 -0.66045773 1.3348943
-280.6315 -49658.516 1.5364056e+06 1.1859406e+09 0.4362044 -0.8816412 185.34525 32797.35
-1.01473094e+06 -7.832636e+08 -0.28809458 0.5822868 -122.412704 -21661.264 670186.94 5.1731254e+08
0.19027428 -0.38457578 80.84841 14306.349 -442630.12 -3.4166304e+08 -0.12566812 0.25399604
-53.39696 -9448.739 292338.5 2.2565402e+08 1.0 4.6591763 165.77263 -33291.375
