deep_learning_based/logs/oldNW20/theta_IN.npy (npy, 230528 bytes, 1 tensors)

array f4 [1, 1600, 36]
0	0x3f800000	1.0
1	0x41be86a2	23.815739
2	0xc3001b16	-128.1058
3	0xc71936b2	-39222.695
4	0x48a18b18	330840.75
5	0x4d4d9d7a	2.156031e+08
6	0x3e8b08bf	0.2715511
7	0x40cef339	6.4671903
8	0xc20b262b	-34.787273
9	0xc6266bdd	-10650.966
10	0x47af7816	89840.17
11	0x4c5f570f	5.854726e+07
12	0x3d9704ff	0.07374
13	0x3fe0ca43	1.7561725
14	0xc11724f4	-9.446522
15	0xc534c481	-2892.2815
16	0x46be9864	24396.195
17	0x4b7297cc	1.5898572e+07
18	0x3ca409bf	0.020024179
19	0x3ef42b01	0.4768906
20	0xc0242c75	-2.5652134
21	0xc44459bf	-785.4023
22	0x45cf0684	6624.8145
23	0x4a83c0b6	4.317275e+06
24	0x3bb22dca	0.0054375874
25	0x3e049bb1	0.12950017
26	0xbf32537e	-0.6965865
27	0xc35546df	-213.27684
28	0x44e0df37	1798.9755
29	0x498f1c46	1.1723608e+06
30	0x3ac189e6	0.0014765828
31	0x3d100a21	0.03516591
32	0xbe41b2da	-0.18915883
33	0xc267a988	-57.915558
34	0x43f441c3	488.51376
35	0x489b727b	318355.84
36	0x3f800000	1.0
37	0xc08a30e7	-4.3184695
38	0x42993f32	76.62343
39	0x4404f0a2	531.7599
40	0xc674a649	-15657.571
41	0x49cafc30	1.662854e+06
42	0xbf10dff2	-0.56591713
43	0x401c68ca	2.4438958
44	0xc22d7336	-43.36251
45	0xc396774d	-300.93204
46	0x460a738d	8860.888
47	0xc965bed9	-941037.56
48	0x3ea3f968	0.3202622
49	0xbfb1078a	-1.3830426
50	0x41c45113	24.539587
51	0x432a4d76	170.30258
52	0xc59cb43a	-5014.5283
53	0x49020454	532549.25
54	0xbe399778	-0.18124187
55	0x3f485e35	0.7826875
56	0xc15e32ae	-13.887373
57	0xc2c0c11b	-96.37716
58	0x45315cec	2837.8076
59	0xc8932859	-301378.78
60	0x3dd20f1b	0.102567874
61	0xbee2c88a	-0.44293624
62	0x40fb7dc4	7.8591022
63	0x425a2a7a	54.54148
64	0xc4c8bed7	-1605.9637
65	0x48268eda	170555.4
66	0xbd6dc082	-0.058044918
67	0x3e805731	0.25066522
68	0xc08e52bf	-4.447601
69	0xc1f6ed7c	-30.86596
70	0x446335eb	908.84247
71	0xc7bc841d	-96520.23
72	0x3f800000	1.0
73	0xc054ab73	-3.3229644
74	0xc1856cea	-16.67818
75	0x43e51a8c	458.2074
76	0xc5fa57bc	-8010.967
77	0xc92bcd2e	-703698.9
78	0xbef893d6	-0.4855029
79	0x3fce80e8	1.6133089
80	0x41018e90	8.097305
81	0xc35e7605	-222.46101
82	0x45731590	3889.3477
83	0x48a6d1fb	341647.84
84	0x3e715ec4	0.23571306
85	0xbf488421	-0.7832661
86	0xc07b99d9	-3.931265
87	0x42d802cd	108.00547
88	0xc4ec0944	-1888.2896
89	0xc821fbc1	-165871.02
90	0xbdea5f31	-0.114439376
91	0x3ec2b3cb	0.38027796
92	0x3ff44e56	1.9086406
93	0xc251bf75	-52.43697
94	0x44653148	916.77
95	0x479d496e	80530.86
96	0x3d639390	0.05556065
97	0xbe3d0e9d	-0.18462606
98	0xbf6d38f8	-0.9266505
99	0x41cbaa99	25.4583
100	0xc3de8c19	-445.0945
101	0xc718b9f7	-39097.965
102	0xbcdcfa5f	-0.026974855
103	0x3db79355	0.08963648
104	0x3ee6582e	0.4498915
105	0xc145c2e1	-12.360078
106	0x4358183c	216.09467
107	0x46944c5a	18982.176
108	0x3f800000	1.0
109	0xbe399d87	-0.18126498
110	0x40aff9b5	5.499232
111	0x4372393c	242.22357
112	0x45c24868	6217.051
113	0xc983586a	-1.0759812e+06
114	0xbf8808c6	-1.0627677
115	0x3e454418	0.19264257
116	0xc0bb0560	-5.844406
117	0xc380b6b5	-257.4274
118	0xc5ce7a40	-6607.2812
119	0x498b96f1	1.1435181e+06
120	0x3f9092a5	1.1294752
121	0xbe51a5df	-0.20473431
122	0x40c6c287	6.211246
123	0x4388caf3	273.58554
124	0x45db700a	7022.005
125	0xc99459f1	-1.2152941e+06
126	0xbf99a5b8	-1.2003698
127	0x3e5ece9b	0.21758501
128	0xc0d33c4f	-6.601112
129	0xc3916102	-290.75787
130	0xc5e93615	-7462.7603
131	0x499da9bb	1.2915754e+06
132	0x3fa34a9b	1.2757143
133	0xbe6ccaca	-0.23124233
134	0x40e07e8e	7.0154486
135	0x439a8108	309.00806
136	0x45f7d972	7931.1807
137	0xc9a78f25	-1.3726446e+06
138	0xbfad8a76	-1.355788
139	0x3e7ba7b1	0.24575688
140	0xc0ee95da	-7.4557924
141	0xc3a433b0	-328.4038
142	0xc603b403	-8429.003
143	0x49b21394	1.4588025e+06
144	0x3f800000	1.0
145	0x40f13a16	7.5383406
146	0xc1fa50ac	-31.28939
147	0xc5024b7d	-2084.718
148	0x463a8c62	11939.096
149	0x4996e720	1.236196e+06
150	0xbda3409b	-0.07971307
151	0xbf19d4dd	-0.6009043
152	0x401fa089	2.4941733
153	0x43262de5	166.17928
154	0xc46deced	-951.70197
155	0xc7c0767d	-98540.98
156	0x3bd036ab	0.006354173
157	0x3d4432b5	0.04789992
158	0xbe4b9700	-0.1988182
159	0xc153f251	-13.246659
160	0x4297b9e6	75.86308
161	0x45f57807	7855.0034
162	0xba04c75b	-0.00050651067
163	0xbb7a3b9a	-0.0038182498
164	0x3c81d486	0.01584841
165	0x3f8728c7	1.0559319
166	0xc0c18350	-6.0472794
167	0xc41c8960	-626.1465
168	0x382958e2	4.037552e-05
169	0x399f9319	0.0003043644
170	0xbaa5962a	-0.0012633253
171	0xbdac6225	-0.08417157
172	0x3ef6cee3	0.48204717
173	0x4247a5f2	49.912056
174	0xb657fca9	-3.2184564e-06
175	0xb7cb85dd	-2.426182e-05
176	0x38d330cd	0.00010070354
177	0x3bdbdbfd	0.0067095743
178	0xbd1d6404	-0.03842546
179	0xc07ea216	-3.978643
180	0x3f800000	1.0
181	0x416b82c6	14.719427
182	0x43ea960e	469.1723
183	0xc59809ea	-4865.2393
184	0xca145ad1	-2.4306442e+06
185	0xcc85f558	-7.023277e+07
186	0xbeb0a180	-0.34498215
187	0xc0a27e7b	-5.0779395
188	0xc321db27	-161.85606
189	0x44d1cd76	1678.4207
190	0x494cb80e	838528.9
191	0x4bb8da5e	2.4229052e+07
192	0x3df3bcec	0.11901268
193	0x3fe03aef	1.7517985
194	0x425f598e	55.837456
195	0xc410c19d	-579.0252
196	0xc88d3fb0	-289277.5
197	0xcaff157c	-8.35859e+06
198	0xbd282ba6	-0.04105725
199	0xbf1ab5fa	-0.60433924
200	0xc19a1a79	-19.262926
201	0x4347c0dc	199.75336
202	0x47c2e9c9	99795.57
203	0x4a2fffb2	2.8835645e+06
204	0x3c681033	0.014164018
205	0x3e557d6b	0.20848624
206	0x40d4a6d5	6.645365
207	0xc289d29b	-68.91134
208	0xc7067bb1	-34427.69
209	0xc972dda4	-994778.25
210	0xbba01d89	-0.0048863334
211	0xbd934ce8	-0.07192403
212	0xc012b8d9	-2.2925322
213	0x41be2f79	23.77318
214	0x463993c1	11876.938
215	0x48a79197	343180.72
216	0x3f800000	1.0
217	0xc01c108c	-2.43851
218	0x42bbba4f	93.863884
219	0xc065cb80	-3.5905457
220	0x46f76030	31664.094
221	0x4a2e3d62	2.8547445e+06
222	0xbf23901c	-0.6389177
223	0x3fc76cc7	1.5580071
224	0xc26fe29b	-59.971294
225	0x4012d1ee	2.294063
226	0xc69e0d80	-20230.75
227	0xc9dea656	-1.8239468e+06
228	0x3ed101aa	0.40821582
229	0xbf7ed50c	-0.99543834
230	0x42194453	38.316723
231	0xbfbb9ca2	-1.4657176
232	0x4649f723	12925.784
233	0x498e413f	1.1653519e+06
234	0xbe8589b7	-0.2608163
235	0x3f22d11a	0.63600314
236	0xc1c3d990	-24.481232
237	0x3f6fbcaf	0.93647283
238	0xc6010a0c	-8258.512
239	0xc935c73f	-744563.94
240	0x3e2aa3b8	0.16664016
241	0xbed00d97	-0.40635368
242	0x417a438e	15.641493
243	0xbf192c19	-0.5983291
244	0x45a4e414	5276.51
245	0x48e84863	475715.1
246	0xbdda0c9a	-0.10646935
247	0x3e84edc6	0.25962657
248	0xc11fe5e5	-9.993627
249	0x3ec3ba9b	0.38228306
250	0xc552b416	-3371.2554
251	0xc89468d9	-303942.78
252	0x3f800000	1.0
253	0x400c0290	2.1876564
254	0x42372493	45.785717
255	0xc2c87e15	-100.246254
